ae_codes/best_model_fcn2_20_10_2_adamw_0.0001_64_encoded.npy (npy, 203280 bytes, 1 tensors)

array f4 [25394, 2]
-1.0897094 2.2654796 -8.245659 17.6908 -1.8030992 5.5555663 -1.5547519 2.3641791
0.30938864 2.7170408 0.12955976 -1.9876782 0.17001629 -1.9633621 -1.4471332 1.4446146
-3.3087845 8.2960825 -0.6177701 6.5430818 -2.914055 8.306524 -0.80349517 4.1666517
-3.6329708 13.780869 -0.5231886 1.5184525 -3.555925 11.015803 0.93183255 1.2146733
-0.10782039 2.3093581 1.2000594 -2.3630219 0.9849093 3.3394759 -3.6812596 9.863971
-4.324531 3.9633837 -2.48211 5.7941656 -6.648869 11.819756 -7.536288 16.060457
-5.948996 9.369361 -3.5594594 11.791395 -2.8547895 6.2358766 -0.12584043 2.301035
-2.7508168 7.4746556 -7.2198625 13.504015 0.30697882 5.3136983 -2.6671517 6.517517
-0.6349387 -0.20671575 1.4143095 -1.0359629 -3.4259453 8.601121 -0.16255939 4.443128
-1.9721854 5.372451 -1.7874634 5.1169815 -5.0944257 11.637008 -1.4464475 1.4346498
-0.5208995 1.5217459 -6.687926 11.823326 -4.498707 3.8420408 -3.5970974 11.250004
-3.6385584 9.348075 -0.03116393 3.136972 0.3736226 -0.532184 -2.5967395 7.0503855
2.0766335 -1.5433482 -4.7915587 6.125865 -3.2222474 7.8499336 -3.2819514 8.186369
-0.24339783 3.7392006 -3.0800505 9.0455885 -0.70937204 5.925202 -0.9469968 5.794484
0.2834363 6.122444 1.0816326 2.9428096 -3.0245628 7.0917716 -3.7387638 13.224336
-2.7854073 6.3497286 -1.4464475 1.4346498 -2.272506 5.990569 -2.5644262 5.6319375
-2.5644262 5.6319375 1.0010872 3.353098 -1.6365023 2.0310624 -0.016887784 1.1136763
-3.6551917 9.459005 2.0766335 -1.5433482 -3.3266284 8.163622 -1.7155434 4.7923
-4.781519 5.760822 0.8500669 2.3314834 0.8500669 2.3314834 0.8500669 2.3314834
-2.890848 6.354606 -2.5967395 7.0503855 -6.051654 9.618146 -0.61351925 3.652111
0.016188264 2.6786923 -1.442888 4.278195 -5.88569 9.217199 -2.952671 8.234554
-5.0944257 11.637008 -0.82585454 2.8362722 -6.728126 12.166387 0.02245152 1.2819396
-1.8299522 4.595978 2.0766335 -1.5433482 -1.7795979 2.783004 -1.9854083 4.941763
0.09189153 4.9312434 -3.5742726 11.22117 -2.5218613 5.815126 -1.296404 1.7525395
-1.2854459 8.601728 0.8500669 2.3314834 -5.2868814 6.9644346 -5.6947737 8.457363
-0.603191 6.5256143 1.0661663 2.709907 -2.525126 6.2046585 -1.8331509 4.8049083
-3.53634 9.089949 0.0087605715 5.2663155 -1.2260802 3.69981 -8.559105 18.284975
-3.2932568 11.609637 -2.3940988 6.41333 -0.64094216 2.682165 -1.7392745 6.2553988
1.4143095 -1.0359629 -4.154531 11.263305 0.28842878 2.7835214 -2.107757 6.1776805
-1.0773273 7.929387 0.3736226 -0.532184 -5.6317873 14.291276 -5.0944257 11.637008
-2.3000548 5.4788704 -2.6166885 6.1753087 1.4143095 -1.0359629 -1.7874634 5.1169815
0.8500669 2.3314834 0.8500669 2.3314834 -2.3000548 5.4788704 2.0766335 -1.5433482
00000000: 997b 8bbf 9efd 1040 38ee 03c1 c286 8d41
00000010: f4cb e6bf 33c7 b140 1c02 c7bf b64e 1740
00000020: 3068 9e3e ffe3 2d40 50ab 043e 3d6c febf
00000030: c018 2e3e 734f fbbf a93b b9bf 22e9 b83f
00000040: 20c3 53c0 c1bc 0441 2e26 1ebf ed60 d140
00000050: e17f 3ac0 86e7 0441 dcb1 4dbf 3655 8540
00000060: 9882 68c0 707e 5c41 b0ef 05bf a75c c23f
00000070: 4694 63c0 bb40 3041 948c 6e3f 6a7a 9b3f
00000080: f0d0 dcbd 86cc 1340 8c9b 993f c03b 17c0
00000090: 0423 7c3f f9b9 5540 c299 6bc0 d3d2 1d41
000000a0: 8f62 8ac0 14a8 7d40 e4da 1ec0 ce69 b940
000000b0: 89c3 d4c0 b81d 3d41 4529 f1c0 d17b 8041
000000c0: 2d5e bec0 e7e8 1541 2fce 63c0 8ea9 3c41
000000d0: dfb4 36c0 4d8c c740 50dc 00be 2844 1340
000000e0: 620d 30c0 6130 ef40 1d09 e7c0 7210 5841
000000f0: 542c 9d3e d109 aa40 9db2 2ac0 808f d040
00000100: 588b 22bf 4bad 53be 1808 b53f 6f9a 84bf
00000110: b042 5bc0 319e 0941 f875 26be 1b2e 8e40
00000120: 9270 fcbf 1eeb ab40 9acb e4bf 50be a340
00000130: 8905 a3c0 2f31 3a41 3125 b9bf 9ba2 b73f
00000140: ab59 05bf 92c8 c23f 7d03 d6c0 582c 3d41
00000150: 68f5 8fc0 ffe3 7540 d836 66c0 0400 3441
00000160: 24de 68c0 b791 1541 804b ffbc 26c4 4840
00000170: 764b bf3e 363d 08bf fb30 26c0 c29c e140
00000180: 90e7 0440 6f8c c5bf 7354 99c0 1607 c440
00000190: 4d39 4ec0 a832 fb40 7e0b 52c0 5efb 0241
000001a0: 483d 79be 104f 6f40 8c1f 45c0 bbba 1041
000001b0: 6899 35bf 419b bd40 626e 72bf 6a6c b940
000001c0: 901e 913e 10eb c340 f072 8a3f fe56 3c40
000001d0: 7092 41c0 cbef e240 e847 6fc0 e196 5341
000001e0: 1d44 32c0 fa30 cb40 3125 b9bf 9ba2 b73f
000001f0: bd70 11c0 beb2 bf40 8f1f 24c0 d538 b440
00000200: 8f1f 24c0 d538 b440 a023 803f 2899 5640
00000210: e878 d1bf edfc 0140 4058 8abc f28c 8e3f
00000220: a9ee 69c0 1658 1741 90e7 0440 6f8c c5bf
00000230: 7be7 54c0 329e 0241 ed96 dbbf 865a 9940
00000240: 3402 99c0 a758 b840 fc9d 593f 0637 1540
00000250: fc9d 593f 0637 1540 fc9d 593f 0637 1540
00000260: a703 39c0 ef58 cb40 fb30 26c0 c29c e140
00000270: 26a7 c1c0 ede3 1941 990f 1dbf 30bc 6940
00000280: 409d 843c b26f 2b40 8eb0 b8bf f9e6 8840
00000290: 9357 bcc0 a679 1341 90f8 3cc0 bcc0 0341
000002a0: 8905 a3c0 2f31 3a41 346b 53bf 7c85 3540
000002b0: cf4c d7c0 85a9 4241 40ec b73c 9916 a43f
000002c0: e03b eabf 4012 9340 90e7 0440 6f8c c5bf
000002d0: ddc9 e3bf bd1c 3240 dc21 febf ec22 9e40
000002e0: a031 bc3d bfcc 9d40 e2c0 64c0 ea89 3341
000002f0: 2d66 21c0 8315 ba40 91f0 a5bf 3753 e03f
00000300: 7e89 a4bf aea0 0941 fc9d 593f 0637 1540
00000310: 222e a9c0 a6dc de40 963b b6c0 5c51 0741
00000320: ba6a 1abf d5d1 d040 2378 883f 1e6f 2d40
00000330: aa9b 21c0 908c c640 b0a4 eabf cfc1 9940
00000340: 6553 62c0 6e70 1141 8088 0f3c a885 a840
00000350: 32f0 9cbf b0c9 6c40 18f2 08c1 a147 9241
00000360: b8c4 52c0 13c1 3941 ea38 19c0 003a cd40
00000370: c914 24bf 97a8 2b40 8ca0 debf 3a2c c840
00000380: 1808 b53f 6f9a 84bf ebf1 84c0 7f36 3441
00000390: f0ac 933e 3725 3240 7ee5 06c0 8faf c540
000003a0: dce5 89bf 8abd fd40 764b bf3e 363d 08bf
000003b0: 9a37 b4c0 11a9 6441 8905 a3c0 2f31 3a41
000003c0: 1934 13c0 e852 af40 d377 27c0 219c c540
000003d0: 1808 b53f 6f9a 84bf 9acb e4bf 50be a340
000003e0: fc9d 593f 0637 1540 fc9d 593f 0637 1540
000003f0: 1934 13c0 e852 af40 90e7 0440 6f8c c5bf
