ae_codes/best_model_fcn1_5_2_adam_0.0001_64_encoded.npy (npy, 203280 bytes, 1 tensors)

array f4 [25394, 2]
00000000: 2c49 683e ce9c c13e 3853 8440 3e9b 20c0
00000010: df04 583f 212b 8fbe 0ae3 b63e 4cb6 963e
00000020: 3096 8ebe 1c3b ba3d 405c 3bbe fc02 d23e
00000030: 4049 48be fe81 f13e c0ea 7f3e 98df df3e
00000040: b5d4 9e3f a461 36bf c412 193f 57a6 e5be
00000050: 1e5e a43f 178c 4ebf f854 103e 305f 9c3d
00000060: 2c4b 1240 3a67 f2bf c0af b8bc a2f8 923e
00000070: 7692 f63f 4a8d babf d43e 05bf e049 a63e
00000080: c068 253d a67f 0c3e 6c85 0ebf 3a98 d63e
00000090: c8f3 c6be 7ab5 043e 283d dd3f cc57 a1bf
000000a0: 7c15 a03f addd 1a3f 2238 673f 7d72 9ebe
000000b0: 9a23 4e40 3809 ccbf 0277 7240 2b2f 10c0
000000c0: 1316 2e40 599f 76bf 86a0 0540 1209 d1bf
000000d0: 0653 893f 2076 b5be b883 0bbe 4626 a93e
000000e0: b157 933f d013 28bf 4b73 5940 a5bd e2bf
000000f0: 608a 253d d0a6 9bbe cfea 823f 810b dfbe
00000100: 209c 8abd e4b6 393f dc37 2bbf 2aa7 f63e
00000110: 2afb b33f 2553 5dbf 28da 533e 8e5e b0bd
00000120: 35ad 5d3f 51aa 89be 3624 4c3f d0ee 59be
00000130: 6447 1b40 6889 c5bf b89f 413e 40b6 013f
00000140: 80ee eabd 462f c73e a6df 4b40 7096 bcbf
00000150: 739a c63f 2c3b ad3e 6e5c fc3f 5db4 c2bf
00000160: 59e4 d33f 4484 96bf 70d8 88bd f455 5c3e
00000170: e031 bebe cbed 1a3f c932 a03f cca6 32bf
00000180: 5c9f 74bf 1eb6 b63e a4c0 e03f 8049 a23b
00000190: 1612 a43f 258e 3abf 852f b93f c761 64bf
000001a0: 008e 223d 98c3 fd3d 16be d43f 818f 8abf
000001b0: 0dcc 0a3f f102 bfbe 9cf9 303f f157 43be
000001c0: 7679 d43e b253 abbe 7c57 efbe 0034 f5bd
000001d0: b8b1 9d3f a85b 1ebf 2484 0e40 f8ea ebbf
000001e0: 6419 8a3f d0e5 ccbe b89f 413e 40b6 013f
000001f0: d5ab 613f 67b5 83be f6ab 8a3f a0b2 f4be
00000200: f6ab 8a3f a0b2 f4be 4cc7 9cbe 3082 1d3d
00000210: 66b5 9b3e bcfe e23e 38d3 65be fe87 e53e
00000220: b439 c53f e5ec 85bf 5c9f 74bf 1eb6 b63e
00000230: 6e2f b73f b22d 61bf d4ba 003f 0c3d d03d
00000240: daf1 db3f d096 683d 8c19 dfbe 18dd 573e
00000250: 8c19 dfbe 18dd 573e 8c19 dfbe 18dd 573e
00000260: 2059 873f 5e3b abbe c932 a03f cca6 32bf
00000270: 70d4 2940 5b07 6cbf 40d3 303e c08e bb3c
00000280: e0a2 4dbd 6877 193e e249 053f d47f 8c3d
00000290: 672e 1e40 2e55 3dbf 0276 b13f f375 68bf
000002a0: 6447 1b40 6889 c5bf 38ca 083e b41c e13d
000002b0: 6020 4640 5959 bbbf 8871 4bbe 80ef cd3e
000002c0: 60be 113f 3095 3b3d 5c9f 74bf 1eb6 b63e
000002d0: f873 e13e f439 633e 2eed 643f e559 94be
000002e0: 00f8 9dbd 0d04 64be 54d7 fc3f a4ad c3bf
000002f0: 7344 663f fe52 78be 4840 5e3e 766b dc3e
00000300: 4160 803f 54a3 f5be 8c19 dfbe 18dd 573e
00000310: 65a1 1740 d322 fbbe 05b1 1340 b34f 08bf
00000320: aa18 163f 74cf e0be 84c6 b8be 3880 cb3d
00000330: 3ca7 743f a8e4 c0be 7cb6 ec3e 7c45 d03d
00000340: 0614 e43f 298e 9fbf b6a6 993e a8d3 39be
00000350: 5aae af3e a8aa 733e 9808 8940 98ce 2cc0
00000360: 9135 0d40 dd62 d8bf ec43 8f3f 862a 04bf
00000370: 00b0 f73c fc1c 513e c1a8 693f d3b3 b1be
00000380: dc37 2bbf 2aa7 f63e 0a11 0f40 6faf e7bf
00000390: d48c a1be 64f5 ad3d 4fd7 7e3f 1868 f0be
000003a0: 56f8 463f 597e 44bf e031 bebe cbed 1a3f
000003b0: af05 3940 a7ed 05c0 6447 1b40 6889 c5bf
000003c0: 82f0 673f 6e50 87be 6967 753f 44fa bebe
000003d0: dc37 2bbf 2aa7 f63e 3624 4c3f d0ee 59be
000003e0: 8c19 dfbe 18dd 573e 8c19 dfbe 18dd 573e
000003f0: 82f0 673f 6e50 87be 5c9f 74bf 1eb6 b63e
0.22684163 0.37814945 4.1351585 -2.5094752 0.8438243 -0.27962592 0.35720092 0.29435956
-0.2784896 0.090933055 -0.1829691 0.41017902 -0.19559193 0.4716949 0.24991894 0.43725276
1.2408663 -0.7124274 0.5979426 -0.4485347 1.2841222 -0.8068251 0.14094913 0.07635343
2.2858381 -1.8937752 -0.022544742 0.28705317 1.9263446 -1.4574368 -0.52048993 0.32478237
0.0403831 0.13720569 -0.55672336 0.41913015 -0.38857865 0.12959853 1.7284288 -1.2604918
1.2506557 0.604945 0.90320027 -0.30946723 3.220923 -1.5940313 3.7885137 -2.252879
2.7200973 -0.96336895 2.0879226 -1.6330893 1.0728462 -0.35441685 -0.13624465 0.33037013
1.1511136 -0.6565523 3.397662 -1.7714125 0.040415168 -0.30400705 1.0227908 -0.43563464
-0.0676806 0.72544694 -0.6688211 0.4817441 1.4061024 -0.86454993 0.20688689 -0.08611785
0.8659242 -0.26887754 0.79742754 -0.21282506 2.4262323 -1.5432558 0.18908584 0.50668716
-0.114712715 0.38903254 3.1855254 -1.473341 1.5515884 0.33834207 1.9715707 -1.5211293
1.6554061 -1.1759114 -0.06681907 0.21517164 -0.37147427 0.60519093 1.2515498 -0.6978576
-0.95555663 0.3568582 1.7558789 0.0049526095 1.2818019 -0.72873145 1.4467627 -0.89211696
0.039686203 0.12390822 1.662051 -1.0825044 0.54217607 -0.37306932 0.69130874 -0.19076516
0.41498917 -0.33462292 -0.46746433 -0.11972809 1.231986 -0.61858606 2.2268152 -1.8431082
1.0788999 -0.40019083 0.18908584 0.50668716 0.8815282 -0.25724337 1.0833728 -0.4779253
1.0833728 -0.4779253 -0.306208 0.038454235 0.30411834 0.44334972 -0.22443855 0.44830316
1.5408235 -1.046292 -0.95555663 0.3568582 1.4311349 -0.8796035 0.5028508 0.10167894
1.7183182 0.05678445 -0.43574178 0.21080434 -0.43574178 0.21080434 -0.43574178 0.21080434
1.0574074 -0.3344373 1.2515498 -0.6978576 2.6535912 -0.92198724 0.17268085 0.022895217
-0.050204158 0.14986956 0.5206586 0.06860319 2.4715822 -0.739581 1.3864138 -0.90804976
2.4262323 -1.5432558 0.1335839 0.10991803 3.095726 -1.4636642 -0.19867527 0.40221786
0.56931114 0.045796573 -0.95555663 0.3568582 0.4403379 0.22190076 0.8942441 -0.28974834
-0.07713318 -0.2226717 1.9753213 -1.5287366 0.89948195 -0.24250409 0.21704209 0.43050736
1.0029374 -0.47976172 -0.43574178 0.21080434 2.3692257 -0.49050006 2.3076794 -0.5324661
0.58631384 -0.43908274 -0.36088955 0.09936565 0.9556768 -0.3767445 0.46232975 0.10169503
1.7818611 -1.2465259 0.30010003 -0.18147147 0.34312707 0.23795569 4.282299 -2.7001095
2.2063944 -1.6905171 1.1192603 -0.51627386 0.03023529 0.20421213 0.91273123 -0.34707507
-0.6688211 0.4817441 2.235415 -1.8100413 -0.31552756 0.0849407 0.99547285 -0.46954417
0.7772268 -0.7675529 -0.37147427 0.60519093 2.890972 -2.0926301 2.4262323 -1.5432558
0.9060136 -0.2642855 0.95860916 -0.37300313 -0.6688211 0.4817441 0.79742754 -0.21282506
-0.43574178 0.21080434 -0.43574178 0.21080434 0.9060136 -0.2642855 -0.95555663 0.3568582
