ae_codes/best_model_fcn2_5_10_3_adamw_0.0001_64_encoded.npy (npy, 304856 bytes, 1 tensors)

array f4 [25394, 3]
0	0xbf84a377	-1.0362386
1	0x411642ef	9.391341
2	0xc03f42e3	-2.9884574
3	0xc22dee3c	-43.48265
4	0x41e1aea8	28.210281
5	0xc15cdaaf	-13.80339
6	0xc102fa26	-8.186071
7	0x4167fa0d	14.498548
8	0xc0bd38dd	-5.9131913
9	0xc09727b3	-4.723596
10	0x40d6ab4f	6.7084117
11	0xc0174bac	-2.3639936
12	0xc03e31e1	-2.9717944
13	0x4094f151	4.6544576
14	0xc0234a7a	-2.5514207
15	0xc0a531c3	-5.1623244
16	0x3f56588a	0.8372885
17	0xbf32530e	-0.6965798
18	0xc007f0cc	-2.124072
19	0x403c5431	2.9426386
20	0xbf9039e8	-1.1267672
21	0xbff6b57d	-1.9274136
22	0x407e6637	3.9749887
23	0xbf5e29ae	-0.8678235
24	0xc193867b	-18.440664
25	0x40cc90be	6.3926687
26	0xc0764521	-3.8479693
27	0xc10cc402	-8.797853
28	0x418431e1	16.524355
29	0xc0ee5890	-7.448311
30	0xc1898d6b	-17.194052
31	0x4131b220	11.105988
32	0xc0b6d767	-5.713794
33	0xc054905d	-3.3213112
34	0x410c99a3	8.787509
35	0xc066d2b2	-3.6066098
36	0xc1ed234d	-29.642237
37	0x41778b82	15.47156
38	0xc110c351	-9.047685
39	0xc04e0ce5	-3.219537
40	0x4084340d	4.131354
41	0xbfdc77e7	-1.7224091
42	0xc1bc0e6b	-23.50704
43	0x4151f153	13.121417
44	0xc0e61147	-7.189609
45	0xbf481271	-0.7815314
46	0x40882c8d	4.2554383
47	0xc00d4a0f	-2.2076452
48	0xc081dbf8	-4.0581017
49	0x41034330	8.203903
50	0xc0630453	-3.547139
51	0xc00c1f2f	-2.1894033
52	0x401c687e	2.4438777
53	0xbfc9515d	-1.5727955
54	0xbffdd69b	-1.9831117
55	0x4122e26c	10.180279
56	0xc0971c75	-4.7222238
57	0xc1b3032d	-22.37655
58	0x4133db2a	11.241007
59	0xc0c925c6	-6.285861
60	0xc051ad67	-3.2762086
61	0x416368e6	14.21311
62	0xc04f38b4	-3.237836
63	0xc11e1bf0	-9.881821
64	0x40f1d54b	7.5572867
65	0xc04f9b7b	-3.2438648
66	0xc1f38edd	-30.444757
67	0x418ea5e7	17.831007
68	0xc102afc3	-8.167911
69	0xc21bd890	-38.961487
70	0x41b71cc1	22.88904
71	0xc133ecc5	-11.245305
72	0xc1b18ef1	-22.194796
73	0x414ce2f3	12.805408
74	0xc09f57ea	-4.9794817
75	0xc1dc4233	-27.532324
76	0x4192f3e5	18.36909
77	0xc11e5753	-9.896319
78	0xc117b632	-9.481981
79	0x4147ddfb	12.491694
80	0xc0a0ac67	-5.021045
81	0xbfa13389	-1.2593852
82	0x41043ee4	8.265354
83	0xc04da8fe	-3.2134395
84	0xc18391a9	-16.446123
85	0x41216fe4	10.089817
86	0xc0a5f3a3	-5.185991
87	0xc203ae72	-32.920357
88	0x41a76acb	20.927145
89	0xc11a5ea7	-9.6481085
90	0xc0cfed28	-6.4976997
91	0x41168c22	9.409212
92	0xc09eed6b	-4.9664817
93	0xc13c0378	-11.750847
94	0x411c4e6e	9.769148
95	0xc08c02f0	-4.3753586
96	0xbede8e06	-0.4346773
97	0x40cec941	6.462067
98	0xbfe0d6a8	-1.7565508
99	0xbf4ff6ee	-0.8123616
100	0x4087bc93	4.2417693
101	0xc00d56bf	-2.2084196
102	0xc19572d2	-18.681065
103	0x414be539	12.743463
104	0xc0ce9f9b	-6.456983
105	0xc07c24ad	-3.9397385
106	0x414299ee	12.1625805
107	0xc0a4af32	-5.146386
108	0xc118a21b	-9.539577
109	0x414fc120	12.98465
110	0xc0b07883	-5.514711
111	0xc101adea	-8.1049595
112	0x4169883b	14.595759
113	0xc0be16ee	-5.940299
114	0xc1e3ebd0	-28.490143
115	0x415b912a	13.72294
116	0xc0ecd932	-7.401513
117	0xbffb199b	-1.9617189
118	0x407d62ab	3.9591472
119	0xbf5deb3a	-0.8668705
120	0xc007b99a	-2.1207032
121	0x403dee3d	2.967666
122	0xbf913b68	-1.1346254
123	0xc1e30dd1	-28.381746
124	0x416c0a19	14.752465
125	0xc0d0cfc7	-6.5253634
126	0xc0ba6dad	-5.825888
127	0x4117586c	9.459087
128	0xbfc252a6	-1.5181472
129	0xc1d1bbed	-26.21676
130	0x4185ca40	16.723755
131	0xc111c202	-9.109865
132	0xc1b0a043	-22.078253
133	0x412bfe03	10.749515
134	0xc0c24579	-6.0709805
135	0xbfd06745	-1.6281515
136	0x4136e7bf	11.431579
137	0xc0918c35	-4.548365
138	0xbf1f9efc	-0.62351966
139	0x40ab42ea	5.351918
140	0xbffdc214	-1.9824853
141	0xc15c370c	-13.763439
142	0x41454e3c	12.3316
143	0xc0b56211	-5.668221
144	0xbf802772	-1.0012038
145	0x40486c77	3.1316202
146	0xc01bcc75	-2.434354
147	0xc0eb17d0	-7.346657
148	0x419fd406	19.978527
149	0xc0c111f8	-6.0334435
150	0xc183fba7	-16.497877
151	0x411afcdc	9.686733
152	0xc09bf629	-4.873799
153	0xc18f14f7	-17.885237
154	0x413b0355	11.6883135
155	0xc0bcf793	-5.9052215
156	0xbfe1b861	-1.7634393
157	0x4134dd95	11.304097
158	0xc08fdb43	-4.4955153
159	0xc189e379	-17.23607
160	0x41870f50	16.882477
161	0xc0fbc04b	-7.8672233
162	0xc0e83506	-7.2564726
163	0x416ae2f4	14.6804085
164	0xc0ce8fe9	-6.455067
165	0xc057f3eb	-3.3742626
166	0x41aa2a0e	21.270535
167	0xc10048e3	-8.017795
168	0xc0ff2dca	-7.9743395
169	0x419014be	18.010128
170	0xc0ffcc7f	-7.993713
171	0xc081b705	-4.0535913
172	0x4082c076	4.085994
173	0xc04711a5	-3.110452
174	0xc1575aa1	-13.459626
175	0x413cac62	11.792086
176	0xc0a9ba41	-5.303986
177	0xc1fac0cd	-31.344141
178	0x418a4b8b	17.286886
179	0xc1200820	-10.001984
180	0xc1271928	-10.443642
181	0x415edefd	13.9294405
182	0xc0b800ab	-5.7500815
183	0xbffb199b	-1.9617189
184	0x407d62ab	3.9591472
185	0xbf5deb3a	-0.8668705
186	0xc123b65b	-10.23202
187	0x41716a1f	15.088408
188	0xc0caaa53	-6.3332915
189	0xc1309b56	-11.037924
190	0x4105dac9	8.365914
191	0xc06acdc8	-3.66881
192	0xc1309b56	-11.037924
193	0x4105dac9	8.365914
194	0xc06acdc8	-3.66881
195	0xc0587a61	-3.3824694
196	0x41226492	10.149553
197	0xc09c734b	-4.889074
198	0xc03635a7	-2.8470247
199	0x4083b339	4.115628
200	0xbf6b855c	-0.92000365
201	0xbf17ba78	-0.59268904
202	0x40abb2e3	5.3655868
203	0xbffda8b4	-1.9817109
204	0xc1b3f850	-22.496246
205	0x413a2e01	11.636231
206	0xc0d1c0d5	-6.554789
207	0xbf802772	-1.0012038
208	0x40486c77	3.1316202
209	0xc01bcc75	-2.434354
210	0xc18c9191	-17.571077
211	0x412d7ec0	10.843445
212	0xc0ae8357	-5.4535327
213	0xc06ab5eb	-3.6673534
214	0x414ec382	12.922731
215	0xc0953b99	-4.663525
216	0xc0a34184	-5.1017475
217	0x419936bc	19.151726
218	0xc0ac4da7	-5.384479
219	0xbfb95f84	-1.4482274
220	0x40e4f770	7.155205
221	0xc05c1eb1	-3.4393733
222	0xbfb95f84	-1.4482274
223	0x40e4f770	7.155205
224	0xc05c1eb1	-3.4393733
225	0xbfb95f84	-1.4482274
226	0x40e4f770	7.155205
227	0xc05c1eb1	-3.4393733
228	0xc12c3fac	-10.765545
229	0x41618528	14.095009
230	0xc0b9ea77	-5.809871
231	0xc15c370c	-13.763439
232	0x41454e3c	12.3316
233	0xc0b56211	-5.668221
234	0xc1a9d9f7	-21.231428
235	0x413524fe	11.321531
236	0xc08817fd	-4.2529283
237	0xc096f342	-4.7171946
238	0x410c24ae	8.758955
239	0xc0719ca8	-3.7751865
240	0xc0ee3302	-7.4437265
241	0x408a712f	4.3263164
242	0xc022133d	-2.5324242
243	0xbfd21541	-1.6412736
244	0x4145185c	12.318447
245	0xc086ff14	-4.2186375
246	0xc1a09d03	-20.076666
247	0x41227ac9	10.154977
248	0xc06a0c02	-3.656983
249	0xc1895fcf	-17.171782
250	0x41312f0a	11.073984
251	0xc0b65513	-5.697885
252	0xc1e3ebd0	-28.490143
253	0x415b912a	13.72294
254	0xc0ecd932	-7.401513
255	0xc07deae9	-3.9674628
