ae_codes/best_model_fcn1_20_2_adamw_0.0001_64_encoded.npy (npy, 203280 bytes, 1 tensors)

array f4 [25394, 2]
0	0xc0c3f42c	-6.123556
1	0xbdfd75a2	-0.12375952
2	0xc1707977	-15.0296545
3	0x418a8779	17.316149
4	0xc0e56e50	-7.169716
5	0x402cb3cd	2.6984742
6	0xc0cbb2c2	-6.365571
7	0x3eb22586	0.34794253
8	0xc0785e2b	-3.8807476
9	0x3f3a0ce5	0.72675925
10	0xc090a40f	-4.5200267
11	0xc038c404	-2.8869638
12	0xc091338c	-4.5375423
13	0xc0336647	-2.8031175
14	0xc0c5c362	-6.1801004
15	0xbf1b592c	-0.6068294
16	0xc0f85092	-7.7598352
17	0x40a63ecc	5.1951656
18	0xc0c02bed	-6.005362
19	0x40402326	3.0021453
20	0xc0fbe172	-7.87127
21	0x40b5750e	5.670539
22	0xc0a6d5d2	-5.213601
23	0x3ee10c88	0.43954873
24	0xc117c3ee	-9.485334
25	0x413ba5a7	11.727942
26	0xc09efccf	-4.9683604
27	0x3a981d80	0.0011605471
28	0xc1105c07	-9.022468
29	0x410b8ad9	8.721398
30	0xc0513c55	-3.2693074
31	0xbf378ddd	-0.7170084
32	0xc0a0529c	-5.010084
33	0x3f6c5f4c	0.9233291
34	0xc048bda9	-3.136576
35	0xc0250d3e	-2.5789332
36	0xc05d7b69	-3.4606574
37	0xbd30d2cc	-0.04316978
38	0xc10a2248	-8.633369
39	0x40fcc55a	7.899091
40	0xc11d9f70	-9.851425
41	0xbfeb6777	-1.839095
42	0xc0ec8a5c	-7.3918896
43	0x4033986e	2.8061786
44	0xc153c6c9	-13.236032
45	0x41394927	11.580359
46	0xc16374fb	-14.21606
47	0x41693865	14.576268
48	0xc147b138	-12.480766
49	0x40f4a328	7.6449165
50	0xc1157132	-9.340136
51	0x413211e4	11.129368
52	0xc0fc0c19	-7.876477
53	0x405b352e	3.4251208
54	0xc0967de4	-4.7028675
55	0xbeb6c245	-0.3569509
56	0xc0f577e2	-7.670884
57	0x409e91c2	4.9552927
58	0xc15966bc	-13.587582
59	0x41410825	12.064488
60	0xc08a013f	-4.312652
61	0x40093a38	2.1441784
62	0xc0f29e0a	-7.581792
63	0x405ada50	3.4195747
64	0xc0b0d7be	-5.5263357
65	0xc09e3803	-4.9443374
66	0xc04073d8	-3.0070705
67	0xc06e7c58	-3.7263393
68	0xc1037b67	-8.217628
69	0x40d25918	6.5733757
70	0xc0a77305	-5.2327905
71	0x3fa55100	1.2915344
72	0xc0e64e2e	-7.1970434
73	0x40354ddd	2.8328774
74	0xc0e483ce	-7.1410894
75	0x4023f12a	2.5615945
76	0xc127db7a	-10.491083
77	0x4126598f	10.396865
78	0xc0c0cdb3	-6.02511
79	0xbf98070b	-1.1877149
80	0xc0989473	-4.7681212
81	0xbf5e9b10	-0.86955357
82	0xc153940b	-13.223643
83	0x41299056	10.597738
84	0xc12c014d	-10.750318
85	0x3f0e63f0	0.5562124
86	0xc10f7de0	-8.968231
87	0x4126b5ff	10.419433
88	0xc1088279	-8.531854
89	0x40fe8b44	7.9545
90	0xc096a4a8	-4.7075996
91	0xbf032a83	-0.5123674
92	0xc0888ded	-4.267325
93	0xc08abc49	-4.335484
94	0xc0fd4096	-7.914134
95	0x40907994	4.514841
96	0xbfce04da	-1.609523
97	0xc0461f9f	-3.09568
98	0xc12f1795	-10.943257
99	0x3fc98102	1.5742495
100	0xc0fe6dbc	-7.9508953
101	0x409cd9a9	4.90157
102	0xc10535da	-8.325647
103	0x40d7c92c	6.743307
104	0xc09e1976	-4.940608
105	0x3dfb57c6	0.12272601
106	0xc1098ebd	-8.597348
107	0x40ce5422	6.44777
108	0xc0bd598b	-5.9171805
109	0x40260fed	2.594722
110	0xc0d75d35	-6.730128
111	0x3fb36503	1.4015201
112	0xc0b0770d	-5.5145326
113	0x40197126	2.397531
114	0xc02d61f7	-2.7091043
115	0x3faa8816	1.332278
116	0xc0fdbfcc	-7.9296627
117	0x4085ed65	4.185229
118	0xc116bfb8	-9.421806
119	0x41450149	12.312814
120	0xc0f7c872	-7.7432184
121	0x404bd86d	3.1850846
122	0xc0c0cdb3	-6.02511
123	0xbf98070b	-1.1877149
124	0xc0e965fe	-7.2937
125	0x401f36f4	2.487729
126	0xc0f6da0a	-7.714116
127	0x407401ad	3.8126023
128	0xc0f6da0a	-7.714116
129	0x407401ad	3.8126023
130	0xc06732f2	-3.6124845
131	0x3f17b9de	0.59267986
132	0xc0c5617c	-6.16815
133	0xbf6ffaf9	-0.9374233
134	0xc090d76b	-4.526296
135	0xbf848070	-1.0351696
136	0xc1053eb9	-8.327813
137	0x410254d9	8.145715
138	0xbfce04da	-1.609523
139	0xc0461f9f	-3.09568
140	0xc103fa0f	-8.248549
141	0x40b4fbd0	5.655739
142	0xc0d048fc	-6.508909
143	0x3e6cc3a9	0.23121513
144	0xc12e35fe	-10.888182
145	0x3f92c079	1.1464988
146	0xc05c8947	-3.4458787
147	0xbd1ee1c0	-0.03878951
148	0xc05c8947	-3.4458787
149	0xbd1ee1c0	-0.03878951
150	0xc05c8947	-3.4458787
151	0xbd1ee1c0	-0.03878951
152	0xc0fa1e38	-7.816189
153	0x4052ce1a	3.2938294
154	0xc0fd4096	-7.914134
155	0x40907994	4.514841
156	0xc145846c	-12.34483
157	0x40da4da2	6.8219767
158	0xc0aacddf	-5.3376307
159	0x3f937c22	1.1522257
160	0xc0941b24	-4.628313
161	0xbfabfc35	-1.3436342
162	0xc0d38f5e	-6.611251
163	0x3f6823fa	0.90679896
164	0xc1428ec4	-12.159855
165	0x40ca77cf	6.327125
166	0xc100a2bb	-8.039729
167	0x40c9d7a8	6.307575
168	0xc127db7a	-10.491083
169	0x4126598f	10.396865
170	0xc0a86922	-5.2628336
171	0x3f6388ce	0.8888062
172	0xc15279b4	-13.154713
173	0x412ba83f	10.728576
174	0xc09270e0	-4.5762787
175	0xbf3c6bff	-0.7360229
176	0xc0d65f0a	-6.6991014
177	0x3f947b9a	1.160022
178	0xbfce04da	-1.609523
179	0xc0461f9f	-3.09568
180	0xc0d14534	-6.5396976
181	0x3f2ac51f	0.6670703
182	0xc0e9c3ab	-7.3051353
183	0x4040ae20	3.0106277
184	0xc0843bd0	-4.1323013
185	0x4000f66f	2.015041
186	0xc10ef600	-8.935059
187	0x411f0ef6	9.941153
188	0xc0edf1b9	-7.435757
189	0x40295d6c	2.646327
190	0xc0c2079b	-6.0634284
191	0xbf1e25c1	-0.6177636
192	0xc0eb4bd9	-7.3530087
193	0x405afdca	3.42174
194	0xc05c8947	-3.4458787
195	0xbd1ee1c0	-0.03878951
196	0xc1433f56	-12.202963
197	0x40a40e2f	5.1267314
198	0xc13f85cc	-11.970165
199	0x409f28f1	4.9737477
200	0xc0bf35f7	-5.9753375
201	0x40377425	2.866464
202	0xc0623216	-3.534307
203	0x3ee59e2e	0.44847244
204	0xc0ee24b0	-7.4419785
205	0x404be473	3.1858184
206	0xc0ce3ca3	-6.444902
207	0x3f14d25e	0.58133495
208	0xc10d8d15	-8.846944
209	0x410c6be9	8.776345
210	0xc0ac886c	-5.391653
211	0x3ffb1d6d	1.9618355
212	0xc0c6f589	-6.2174726
213	0xbdcac596	-0.09900968
214	0xc17272ae	-15.152998
215	0x418db428	17.712967
216	0xc1183bec	-9.514629
217	0x41309f48	11.038887
218	0xc0f71ae8	-7.7220345
219	0x408ef9ce	4.4679937
220	0xc0a49331	-5.1429677
221	0x3ed5a306	0.4172594
222	0xc0e83ce5	-7.2574334
223	0x4029d122	2.6533895
224	0xc04073d8	-3.0070705
225	0xc06e7c58	-3.7263393
226	0xc11963a6	-9.586828
227	0x41365d90	11.397842
228	0xc0695453	-3.6457717
229	0x3e705bd1	0.23472525
230	0xc0edae71	-7.427544
231	0x40689f14	3.6347094
232	0xc0c6e62b	-6.2155967
233	0x409fe718	4.9969597
234	0xc0888ded	-4.267325
235	0xc08abc49	-4.335484
236	0xc13426f1	-11.259507
237	0x41528234	13.156788
238	0xc127db7a	-10.491083
239	0x4126598f	10.396865
240	0xc0ed904a	-7.4238634
241	0x4033c0be	2.808639
242	0xc0f040ec	-7.507925
243	0x408329a4	4.098833
244	0xc04073d8	-3.0070705
245	0xc06e7c58	-3.7263393
246	0xc0e483ce	-7.1410894
247	0x4023f12a	2.5615945
248	0xc05c8947	-3.4458787
249	0xbd1ee1c0	-0.03878951
250	0xc05c8947	-3.4458787
251	0xbd1ee1c0	-0.03878951
252	0xc0ed904a	-7.4238634
253	0x4033c0be	2.808639
254	0xbfce04da	-1.609523
255	0xc0461f9f	-3.09568
