ae_codes_onehot/best_model_fcn1_5_5_sgdm_0.0001_64_encoded.npy (npy, 508008 bytes, 1 tensors)

array f4 [25394, 5]
0	0xbe2fba9e	-0.17161033
1	0xbe05a282	-0.13050273
2	0xbe01f17f	-0.1268978
3	0x3df4482c	0.11927828
4	0x3e887fbd	0.26659957
5	0xbe41c176	-0.18921456
6	0xbdd5fb43	-0.10448315
7	0xbde041f3	-0.10950079
8	0x3da17582	0.07883741
9	0x3e8e91a8	0.27845502
10	0xbe3b90ec	-0.18317002
11	0xbd8bf8f2	-0.06834592
12	0xbdf6ff3b	-0.120604
13	0x3e4463fe	0.19178769
14	0x3e823a6d	0.254352
15	0xbe4ddb75	-0.20103247
16	0xbe141f40	-0.14465046
17	0xbe081793	-0.13290243
18	0x3ddb791c	0.10716459
19	0x3e7c75b1	0.2465427
20	0xbe242282	-0.16028789
21	0xbe165f57	-0.14684807
22	0xbe06f80b	-0.13180558
23	0x3dff79e1	0.124744184
24	0x3e835e43	0.25657853
25	0xbe3e82bd	-0.1860456
26	0xbe14f327	-0.1454588
27	0xbe07add0	-0.13249898
28	0x3de8b744	0.1136308
29	0x3e801eb0	0.25023413
30	0xbe1bf362	-0.15229562
31	0xbdd01b2a	-0.10161431
32	0xbdee83e9	-0.116462536
33	0x3e018b14	0.1265071
34	0x3e976918	0.29572368
35	0xbe5816f0	-0.211025
36	0xbdf839a2	-0.121203676
37	0xbe0098b3	-0.1255825
38	0x3dd0e96e	0.10200773
39	0x3e8684b2	0.26273113
40	0xbe5dd836	-0.21664509
41	0xbe077f33	-0.13232116
42	0xbe04a02a	-0.12951723
43	0x3dcccf1e	0.10000442
44	0x3e810c95	0.25204912
45	0xbe724b3c	-0.23661512
46	0xbde0062e	-0.10938679
47	0xbe09578b	-0.13412301
48	0x3e032ae5	0.12809332
49	0x3e768b85	0.2407666
50	0xbe549f9d	-0.20764013
51	0xbe09da4b	-0.13462178
52	0xbdf01b72	-0.11723985
53	0x3d7c4645	0.06159045
54	0x3e62bdc4	0.22142702
55	0xbdcd2e56	-0.100186035
56	0xbdf25249	-0.11832101
57	0xbdf96e0b	-0.12179192
58	0x3e368008	0.17822278
59	0x3e8aaece	0.2708649
60	0xbe208297	-0.15674816
61	0xbdafeb61	-0.08589817
62	0xbde442c8	-0.1114555
63	0x3dfdfb7a	0.12401481
64	0x3e9d4cc3	0.30722627
65	0xbe40b371	-0.18818451
66	0xbe14d4e9	-0.14534344
67	0xbe07bce8	-0.13255656
68	0x3de6d36c	0.11270794
69	0x3e7fb345	0.2497073
70	0xbe329584	-0.17439848
71	0xbce25c0c	-0.027631782
72	0xbdbe5926	-0.092943475
73	0x3dea0dc2	0.11428405
74	0x3eb2f6d8	0.34953952
75	0xbe627d83	-0.22118191
76	0xbe13025b	-0.14356367
77	0xbe08a5c4	-0.13344485
78	0x3dc9ab22	0.09847094
79	0x3e7760ab	0.2415797
80	0xbdc895fc	-0.09794232
81	0xbe2084db	-0.1567568
82	0xbdf490a0	-0.119416475
83	0x3ddf0b00	0.1089077
84	0x3e859812	0.26092583
85	0xbe627d83	-0.22118191
86	0xbe13025b	-0.14356367
87	0xbe08a5c4	-0.13344485
88	0x3dc9ab22	0.09847094
89	0x3e7760ab	0.2415797
90	0xbe3e6e22	-0.185967
91	0xbe14f443	-0.14546303
92	0xbe07ad42	-0.13249686
93	0x3de8c90b	0.11366471
94	0x3e80213a	0.2502535
95	0xbe401bff	-0.1876068
96	0xbd773ee2	-0.060362704
97	0xbdd5c43a	-0.10437818
98	0x3de0e913	0.109819554
99	0x3ea35bbf	0.31905934
100	0xbe61989d	-0.22030874
101	0xbe10cb23	-0.1413999
102	0xbe07df9b	-0.13268892
103	0x3dca45df	0.09876608
104	0x3e7970e2	0.24359468
105	0xbe7c936e	-0.24665615
106	0xbdbf71f6	-0.09347908
107	0xbdef4e98	-0.116849124
108	0x3dff412e	0.12463604
109	0x3e6db0d1	0.23211981
110	0xbe39a489	-0.18129171
111	0xbd372598	-0.044713587
112	0xbdca91e5	-0.098911084
113	0x3de54830	0.11195409
114	0x3eaad1dc	0.33363235
115	0xbe1acf18	-0.15118062
116	0xbddabd97	-0.10680693
117	0xbdaf353a	-0.08555074
118	0x3c972b00	0.018453121
119	0x3e8e0e14	0.27745116
120	0xbe735395	-0.23762353
121	0xbd96b28e	-0.07358275
122	0xbe02e040	-0.12780857
123	0x3e141c96	0.1446403
124	0x3e878767	0.2647049
125	0xbd72b0f8	-0.0592508
126	0xbd822574	-0.063548
127	0xbdcc2770	-0.099684596
128	0x3e2905fb	0.16506188
129	0x3eb51a7d	0.3537177
130	0xbe3e1b1c	-0.18565029
131	0xbcd7bd30	-0.026335329
132	0xbdc792d5	-0.09744803
133	0x3dfe2e9f	0.12411236
134	0x3eade8da	0.33966714
135	0xbe216640	-0.15761662
136	0xbe16851c	-0.14699215
137	0xbe06e531	-0.13173367
138	0x3e00eb12	0.12589672
139	0x3e83b480	0.25723648
140	0xbeaeda0e	-0.34150738
141	0x3dad4ddc	0.08462116
142	0xbdc137c9	-0.09434468
143	0x3e8148f0	0.2525096
144	0x3e5c0cb9	0.21489228
145	0xbe481054	-0.19537479
146	0xbe0be98a	-0.13663307
147	0xbdee64d6	-0.11640327
148	0x3d82f85e	0.063950285
149	0x3e7eb01e	0.24871871
150	0xbe0433cb	-0.12910382
151	0xbd502166	-0.0508131
152	0xbdf52f74	-0.119719416
153	0x3e757cd1	0.23973395
154	0x3e8a893b	0.27057824
155	0xbe65a277	-0.22425257
156	0xbe0ba37b	-0.13636582
157	0xbe02cb24	-0.12772804
158	0x3dca23ce	0.098701105
159	0x3e744bcc	0.23857039
160	0xbe3d54dd	-0.18489404
161	0xbd5bb5fa	-0.053640343
162	0xbdd0f4f2	-0.102029696
163	0x3de2c9cf	0.11073648
164	0x3ea69045	0.32531944
165	0xbe5de12a	-0.21667925
166	0xbe079564	-0.13240582
167	0xbe04a7ea	-0.12954679
168	0x3dccc910	0.09999287
169	0x3e81023f	0.25197026
170	0xbe4e36e5	-0.20138128
171	0xbdd1a4c3	-0.10236504
172	0xbdefafbd	-0.11703441
173	0x3dcb277e	0.09919642
174	0x3e8f6161	0.28003982
175	0xbe0aa71c	-0.1354031
176	0xbd866468	-0.0656212
177	0xbe0a868d	-0.1352789
178	0x3e72b1cd	0.23700638
179	0x3e8d0809	0.27545193
180	0xbdec9fa9	-0.1155389
181	0xbe18d80d	-0.14926167
182	0xbe05bc41	-0.13060094
183	0x3e13823d	0.1440515
184	0x3e8902f4	0.26760066
185	0xbe6c1bfe	-0.23057553
186	0x3ce66710	0.028125316
187	0xbdeddc70	-0.11614311
188	0x3e8cadf1	0.27476457
189	0x3e80c4ae	0.25150055
190	0xbe626154	-0.2210744
191	0xbe12bc83	-0.14329724
192	0xbe088d5e	-0.13335177
193	0x3dc9be30	0.098507285
194	0x3e77a1b5	0.2418278
195	0xbe5a3126	-0.21307811
196	0xbdfce424	-0.12348202
197	0xbe0176a9	-0.12642922
198	0x3dcf473b	0.10121008
199	0x3e85437a	0.26028043
200	0xbe4ca93b	-0.19986431
201	0xbe142fc4	-0.14471346
202	0xbe080f54	-0.13287097
203	0x3ddc815b	0.1076686
204	0x3e7cc11f	0.24683045
205	0xbe4e16aa	-0.20125833
206	0xbdc0e7b4	-0.09419194
207	0xbdedf87a	-0.11619659
208	0x3dd775d9	0.105205245
209	0x3e933a97	0.28755638
210	0xbe6f1332	-0.23347166
211	0xbdc56fd2	-0.09640469
212	0xbdc9b38c	-0.09848699
213	0x3ddb14c3	0.10697319
214	0x3e66b8eb	0.22531478
215	0xbe229a3c	-0.15879148
216	0x3c34eea0	0.011043221
217	0xbda2ad56	-0.079432175
218	0x3df4db84	0.11955932
219	0x3ec56778	0.38555503
220	0xbe5d1d70	-0.21593261
221	0xbe05b05f	-0.13055561
222	0xbe03fe79	-0.12890042
223	0x3dcd4d60	0.10024524
224	0x3e81e415	0.25369325
225	0xbe5ed619	-0.2176136
226	0xbe15a5ad	-0.14613982
227	0xbe069231	-0.13141705
228	0x3dba674e	0.09101735
229	0x3e750fbf	0.23931788
230	0xbe3a49c5	-0.18192203
231	0xbd9af8fc	-0.07567021
232	0xbddfa173	-0.10919466
233	0x3de7114b	0.11282595
234	0x3e9dd28f	0.30824706
235	0xbe59d14a	-0.21271244
236	0xbdf563fa	-0.1198196
237	0xbdff15ff	-0.12455367
238	0x3dd003c9	0.10156972
239	0x3e86158c	0.26188314
240	0xbe43b9b2	-0.19113806
241	0xbd8d8b4c	-0.069113344
242	0xbddc0704	-0.107435256
243	0x3dde774a	0.10862596
244	0x3e9f2fa7	0.31091043
245	0xbe535aa3	-0.20640044
246	0xbddb0068	-0.10693437
247	0xbdf7166a	-0.12064822
248	0x3dd3e69a	0.10346718
249	0x3e8d2744	0.2756902
250	0xbe88bc07	-0.26705953
251	0x3d7c5f14	0.06161411
252	0xbde564bc	-0.11200854
253	0x3e698433	0.22804336
254	0x3e9e15b0	0.3087592
255	0xbe6bd0d1	-0.23028876
