ae_codes_onehot/best_model_fcn1_10_5_sgdm_0.0001_64_encoded.npy (npy, 508008 bytes, 1 tensors)

array f4 [25394, 5]
0	0x401186c0	2.2738495
1	0x3e620b6f	0.22074674
2	0xbe9774cd	-0.295813
3	0x3f9633de	1.1734579
4	0xbdde0c55	-0.10842196
5	0x3e0b571a	0.13607445
6	0x3e06571c	0.13119167
7	0x3df99d13	0.12188163
8	0x3d4a4ef5	0.049391706
9	0x3d9c039f	0.07617878
10	0x3f352f00	0.7077484
11	0x3f01dcf6	0.50727785
12	0x3f0f2434	0.55914617
13	0xbcfe0792	-0.03100947
14	0x3db6b8b4	0.08921948
15	0x3fbccfb4	1.4750886
16	0x3d5b4eec	0.053542063
17	0xbe039c72	-0.12852648
18	0x3f405a64	0.75137925
19	0x3d86413b	0.065554105
20	0x401e8d45	2.4773724
21	0x3ec0118e	0.37513393
22	0x3e1d576d	0.15365382
23	0x3f8d5a30	1.1043148
24	0x3d568a9e	0.05237829
25	0x3feffd92	1.8749259
26	0x3d464534	0.04840584
27	0xbeeea105	-0.46607223
28	0x3f870c9e	1.0550725
29	0xbdaccf51	-0.0843798
30	0x3feb76a4	1.8395581
31	0x3a399b00	0.0007080287
32	0xbf095f4a	-0.53661025
33	0x3f8ee953	1.1164955
34	0xbd1e2ef2	-0.03861899
35	0x40058696	2.0863395
36	0x3cd39da8	0.025832012
37	0xbee7fe2d	-0.45311108
38	0x3f9cd20a	1.2251599
39	0xbd1572f2	-0.036486574
40	0x3f24dd68	0.6440034
41	0x3f40d037	0.7531771
42	0x3e705f2a	0.23473802
43	0xbe57f51e	-0.21089599
44	0x3c895854	0.016765751
45	0x3e55e323	0.20887427
46	0x3ee8eaec	0.4549173
47	0x3e4d90fb	0.20074837
48	0xbe280692	-0.16408756
49	0x3dfe7167	0.124239735
50	0xbe17a53d	-0.14809127
51	0x3e6334d9	0.22188129
52	0xbebed819	-0.37274244
53	0xbe443e8e	-0.19164488
54	0x3d25ddc7	0.040494706
55	0x3ff2e188	1.8975077
56	0x3e68600e	0.22692892
57	0x3eab748c	0.33487356
58	0x3f5565b8	0.83358335
59	0x3e0d7da4	0.1381746
60	0xbe563e0b	-0.20922105
61	0x3f08b0e0	0.5339489
62	0xbed5e87b	-0.4177893
63	0xbead3896	-0.33832234
64	0x3dba20bc	0.09088275
65	0x3ff8c80c	1.943605
66	0xbbeb73e0	-0.0071854442
67	0xbe47b1a8	-0.19501364
68	0x3f8cdac3	1.1004261
69	0x3e12ac5c	0.14323562
70	0x3e85538e	0.2604031
71	0x3f3bbf3d	0.7333868
72	0xbea0e2b9	-0.31422976
73	0xbe7f39de	-0.24924418
74	0xbda65865	-0.08122329
75	0x4014e820	2.3266678
76	0xbdfd5222	-0.12369181
77	0xbf8b6cd3	-1.0892586
78	0x3fcad64c	1.5846648
79	0xbe749506	-0.23884973
80	0x3ffbf600	1.9684448
81	0x3e2d927f	0.16950415
82	0xbeb54fc5	-0.35412422
83	0x3f8deeee	1.108854
84	0xba7ea680	-0.00097141415
85	0x4000a7fe	2.0102534
86	0xbdb8dc6e	-0.090264186
87	0xbf4485c4	-0.7676661
88	0x3fa8e2ca	1.319421
89	0xbda6e4e9	-0.0814913
90	0x401d0283	2.4532783
91	0x3e73828b	0.23780267
92	0xbe3331c6	-0.17499456
93	0x3f9ec200	1.2402954
94	0xbdc20299	-0.09473152
95	0x3e06b636	0.13155445
96	0x3eed01a0	0.46290302
97	0xbf25ce82	-0.6476823
98	0xbe32b91a	-0.17453423
99	0xbdb372d3	-0.08762135
100	0x3fc0c058	1.5058699
101	0x3dacb84e	0.08433591
102	0xbe57e4bc	-0.21083349
103	0x3f5b12b1	0.85575396
104	0xbc7ea368	-0.015541889
105	0x3f7953d2	0.97393525
106	0x3eaee63a	0.34160024
107	0x3eea08f6	0.45709962
108	0x3dae5e24	0.0851405
109	0x3d51dc46	0.05123546
110	0xbdc55010	-0.09634411
111	0x3ebf9fdc	0.3742665
112	0xbf00e192	-0.50344193
113	0xbe1ab7fb	-0.15109245
114	0x3d1beb5e	0.03806626
115	0x3da80abf	0.08205175
116	0x3dc3962a	0.09550126
117	0xbe220bf2	-0.1582487
118	0x3d864b2a	0.06557305
119	0x3cca4184	0.024689443
120	0xbe539253	-0.20661287
121	0x3f10b532	0.5652648
122	0xbecc61ef	-0.39918467
123	0xbec08284	-0.37599576
124	0xbd244f22	-0.04011453
125	0x3ddc58b1	0.10759104
126	0x3ef89734	0.4855286
127	0xbf0c4d16	-0.54805124
128	0xbcac99b2	-0.021069381
129	0xbd640b62	-0.055674918
130	0x3f0c6760	0.5484524
131	0x3f3f975a	0.7484032
132	0x3de6da32	0.11272086
133	0xbe48edea	-0.19622007
134	0xbd66a306	-0.056307815
135	0x4014ae03	2.3231208
136	0x3d35b80c	0.044364974
137	0xbf0fec30	-0.5621977
138	0x3fafd5fe	1.373718
139	0xbd0f0f12	-0.03492648
140	0xbd9fdb3a	-0.07805486
141	0x3eaa5f96	0.3327605
142	0x3d46f798	0.048575968
143	0xbe93af65	-0.28844753
144	0xbc98f7c4	-0.018672831
145	0x3e1b6dab	0.15178554
146	0x3ea343fe	0.3188781
147	0xbef7b96d	-0.48383656
148	0x3d725d09	0.059170756
149	0x3daf223e	0.08551453
150	0x3fbc927a	1.4732201
151	0x3f1ce41f	0.61285585
152	0x3f8a6d4a	1.0814602
153	0x3e224e0e	0.15850088
154	0x3df8fd62	0.12157704
155	0x3f1c9dea	0.6117846
156	0x3f3bc9f8	0.73355055
157	0x3ead1a84	0.33809292
158	0xbe825b19	-0.25460127
159	0xbd0a260e	-0.033727698
160	0x3fe6c17a	1.8027794
161	0xbe7eb1f3	-0.2487257
162	0xbf9b92dc	-1.2154193
163	0x3fb110f5	1.38333
164	0xbe6f19de	-0.23349711
165	0x40019dd2	2.0252576
166	0xbe2894f3	-0.1646307
167	0xbf94ccd8	-1.1625013
168	0x3fb93565	1.446942
169	0xbe88d8ef	-0.26728007
170	0xbe1026c7	-0.14077292
171	0x3eaf571e	0.34246153
172	0xbede1703	-0.43376932
173	0xbe6a5c57	-0.22886787
174	0xbc5197b8	-0.01279252
175	0x3fafb8d9	1.3728286
176	0x3f23cae0	0.6398144
177	0x3f6c9c60	0.9242611
178	0x3e10513a	0.14093485
179	0x3baffeb0	0.0053709373
180	0x3ef91ade	0.4865331
181	0x3eaee1a4	0.34156525
182	0x3df2f067	0.11862259
183	0x3d24fe79	0.040281747
184	0x3e2ad414	0.16682464
185	0x3eb2d722	0.34929758
186	0x3f06d5db	0.5267007
187	0x3f0b4693	0.5440456
188	0xbe475aed	-0.19468279
189	0x3d352844	0.044227853
190	0xbdd01744	-0.101606876
191	0x3e46faca	0.19431606
192	0xbf0d4002	-0.55175793
193	0xbe4384b3	-0.1909359
194	0x3da34474	0.07972041
195	0x4005fbc8	2.0934925
196	0xbdd0aaf2	-0.10188855
197	0xbf2f0362	-0.68364537
198	0x3fad2465	1.3526732
199	0xbcdc2fe4	-0.026878305
200	0x4009b3ec	2.1516066
201	0xbdecd22a	-0.11563523
202	0xbf2faa2a	-0.68619025
203	0x3fb2b647	1.3961877
204	0x3c9846cc	0.018588446
205	0xbdc1bb94	-0.09459606
206	0x3e8349ee	0.2564234
207	0xbf1badcc	-0.6081207
208	0xbe085333	-0.13312988
209	0x3dcb21f7	0.09918588
210	0x3f95ce88	1.1703653
211	0x3d14e6f4	0.036353067
212	0xbeabf9ed	-0.33589116
213	0x3f303412	0.68829453
214	0xbd767392	-0.06016881
215	0xbe017d67	-0.12645493
216	0x3ef6d65c	0.48210418
217	0xbf581baa	-0.8441721
218	0xbe149fdf	-0.14514111
219	0xbc058c00	-0.008151054
220	0xbe7dae53	-0.2477353
221	0x3ef62062	0.4807158
222	0xbf2752bc	-0.6536062
223	0xbeaea193	-0.34107646
224	0xbc5321b0	-0.01288645
225	0x3ffcfa60	1.9763908
226	0xbd98433a	-0.074346974
227	0xbf2863a6	-0.6577705
228	0x3f9e1ca1	1.2352487
229	0xbe2984f6	-0.16554627
230	0x3fee7ed8	1.863246
231	0xbe7b9dc5	-0.24571903
232	0xbf9c005f	-1.2187613
233	0x3fb5d136	1.4204471
234	0xbe4dd99a	-0.2010254
235	0x3e6a8bd2	0.229049
236	0x3ee7a0c0	0.4523983
237	0xbdd2a728	-0.10285789
238	0xbe7db267	-0.24775086
239	0xbd8166ff	-0.06318473
240	0x3fe6b02a	1.8022511
241	0xbe845ce0	-0.25852108
242	0xbfa9383f	-1.322029
243	0x3fb1e66b	1.3898443
244	0xbe6efa50	-0.23337674
245	0x3f0fa0a6	0.56104505
246	0x3ed4b578	0.415447
247	0x3e081127	0.13287793
248	0x3d83d932	0.06437911
249	0x3e110eae	0.14165756
250	0x3e3ba367	0.18324052
251	0x3eea140a	0.45718414
252	0x3c868e90	0.016425401
253	0xbe77e665	-0.24208982
254	0xbded8651	-0.115978844
255	0xbe196da1	-0.14983226
