ae_codes_onehot/best_model_fcn2_10_5_3_adamw_0.0001_64_encoded.npy (npy, 304856 bytes, 1 tensors)

array f4 [25394, 3]
-11.40299 -14.843033 5.050501 6.653026 -10.332388 4.3177342 -10.243054 -19.274094
4.3653846 -9.318564 -13.502431 5.8800263 -11.737719 -14.357491 5.045782 -7.390262
-7.7708707 2.39922 -7.575454 -8.985802 3.5597613 -9.068752 -11.182984 3.9742842
-3.3990011 -9.431087 1.1061577 -4.725694 -13.462828 1.9129777 -0.33814615 -12.765313
2.3899646 -13.708156 -23.661913 7.61675 4.8881993 -7.7715106 4.795961 -9.541131
-13.46338 6.0643864 1.2632099 -2.9453292 2.3267884 -10.702907 -15.0707035 7.309265
-12.059255 -17.938751 7.8307176 -6.9330664 -9.170941 5.35555 -19.355858 -28.140106
10.519078 -0.6051721 -7.2076235 0.6291217 -10.349665 -17.274332 6.148967 -7.0244503
-15.629959 2.6015496 4.010059 -5.7773776 2.9282572 8.1251 -9.378622 3.5404835
-2.0199628 -10.977507 0.7702915 3.0817108 -3.898749 3.1332111 -7.1114416 -14.800778
2.7323644 -11.789697 -17.554245 7.749666 -2.5961695 -17.034546 1.4547203 6.8628597
-5.8057218 4.9220433 -14.080498 -22.864674 5.88992 -7.553926 -16.132114 1.9567319
-6.2755094 -9.979605 6.1110897 -6.2984943 -9.361407 6.259093 0.3581103 -9.791577
2.4807968 -13.889307 -24.72068 5.946943 -11.161879 -21.462297 6.051173 -11.085194
-23.127966 4.423996 0.2123152 -4.283753 2.7081711 -9.727306 -13.652394 6.020367
-9.519908 -13.418099 6.0470376 1.6019326 -4.7967405 2.3417711 -10.301688 -21.03215
6.428208 2.7237058 -3.5230296 1.0257304 -0.15842682 -9.33587 0.8852909 -9.264876
-12.08716 4.405073 -7.030862 -10.867864 6.2847366 -3.2905283 -11.431572 0.6135582
-6.189309 -9.940759 6.1960917 -4.583156 -13.860152 4.284569 -2.5221925 -13.702252
1.3211262 -1.2782712 -11.686636 0.55136913 -14.01619 -24.905254 8.614383 -0.39469028
-4.6074686 0.051781066 -5.8338647 -10.361229 2.569366 -4.6967497 -11.754961 3.029714
-5.2019196 -16.780672 5.21637 -7.038004 -15.386106 4.965389 -3.436809 -12.868808
0.9004357 4.7250795 -3.83291 2.8607473 -3.9445019 -13.262311 1.6847048 -9.727306
-13.652394 6.020367 -3.8011093 -18.538258 3.930399 -7.4234877 -13.10111 2.333391
-7.4234877 -13.10111 2.333391 -19.41886 -28.241976 10.5513 -9.089967 -13.208509
5.965359 -9.786162 -14.604846 7.029796 2.0946841 -10.341397 1.3858329 -6.189309
-9.940759 6.1960917 -1.8853574 -10.337165 0.7162254 -6.663437 -14.774958 4.919897
-5.358784 -9.9259 2.289765 -12.70644 -18.0201 8.029135 -12.70644 -18.0201
8.029135 -12.70644 -18.0201 8.029135 -3.662766 -10.654878 4.1256647 -3.2905283
-11.431572 0.6135582 -0.5708483 -8.027651 1.1432137 -17.53503 -24.07506 7.242186
-13.182612 -17.19593 4.782844 -6.030985 -8.810643 2.7795699 -1.5605855 -11.761353
0.5549744 0.020979702 -12.707288 1.6211072 0.2123152 -4.283753 2.7081711 -7.544179
00000000: a672 36c1 107d 6dc1 b49d a140 97e5 d440
00000010: 7651 25c1 e12a 8a40 8de3 23c1 5831 9ac1
00000020: 3bb1 8b40 d718 15c1 f509 58c1 2d29 bc40
00000030: b2cd 3bc1 48b8 65c1 0c77 a140 077d ecc0
00000040: f9aa f8c0 d28c 1940 1f6a f2c0 d8c5 0fc1
00000050: 21d3 6340 9c19 11c1 81ed 32c1 ac5a 7e40
00000060: 3c89 59c0 bbe5 16c1 9396 8d3f e338 97c0
00000070: be67 57c1 74dc f43f 7e21 adbe b93e 4cc1
00000080: 2ef5 1840 9b54 5bc1 994b bdc1 6abc f340
00000090: 216c 9c40 37b0 f8c0 8378 9940 79a8 18c1
000000a0: 016a 57c1 740f c240 ddb0 a13f 4680 3cc0
000000b0: 1aea 1440 1b3f 2bc1 9a21 71c1 80e5 e940
000000c0: b5f2 40c1 9082 8fc1 3d95 fa40 aedb ddc0
000000d0: 2dbc 12c1 aa60 ab40 ccd8 9ac1 f01e e1c1
000000e0: 254e 2841 8fec 1abf daa4 e6c0 1f0e 213f
000000f0: 3a98 25c1 d531 8ac1 56c4 c440 4cc8 e0c0
00000100: 5014 7ac1 ca7f 2640 6752 8040 47e0 b8c0
00000110: 9168 3b40 6900 0241 d60e 16c1 4897 6240
00000120: 1247 01c0 dea3 2fc1 d331 453f c03a 4540
00000130: 1b85 79c0 8886 4840 ee90 e3c0 fdcf 6cc1
00000140: 0fdf 2e40 99a2 3cc1 186f 8cc1 44fd f740
00000150: a427 26c0 c046 88c1 4634 ba3f 8c9c db40
00000160: 79c8 b9c0 6181 9d40 b849 61c1 daea b6c1
00000170: 3a7a bc40 c3b9 f1c0 920e 81c1 3176 fa3f
00000180: f9d0 c8c0 76ac 1fc1 0c8e c340 448d c9c0
00000190: 53c8 15c1 7d4a c840 3c5a b73e 4daa 1cc1
000001a0: 60c5 1e40 9a3a 5ec1 f4c3 c5c1 5b4d be40
000001b0: 0e97 32c1 c9b2 abc1 36a3 c140 f45c 31c1
000001c0: 1306 b9c1 6091 8d40 2869 593e 8114 89c0
000001d0: ad52 2d40 0ca3 1bc1 3570 5ac1 d9a6 c040
000001e0: 8b51 18c1 89b0 56c1 5581 c140 210c cd3f
000001f0: e67e 99c0 94df 1540 b7d3 24c1 d841 a8c1
00000200: e1b3 cd40 3251 2e40 5179 61c0 224b 833f
00000210: a43a 22be b95f 15c1 6da2 623f ef3c 14c1
00000220: 0265 41c1 5cf6 8c40 d2fc e0c0 c5e2 2dc1
00000230: 901c c940 0498 52c0 b8e7 36c1 2612 1d3f
00000240: d20e c6c0 590d 1fc1 6246 c640 37a9 92c0
00000250: 2fc3 5dc1 301b 8940 9a6b 21c0 6d3c 5bc1
00000260: aa1a a93f 649e a3bf 76fc 3ac1 8726 0d3f
00000270: 5042 60c1 f63d c7c1 83d4 0941 d814 cabe
00000280: 6270 93c0 6218 543d 05af bac0 98c7 25c1
00000290: 7e70 2440 c64b 96c0 5214 3cc1 d6e6 4140
000002a0: 2076 a6c0 d13e 86c1 81ec a640 5437 e1c0
000002b0: 7d2d 76c1 77e4 9e40 aef4 5bc0 a3e6 4dc1
000002c0: f482 663f da33 9740 664e 75c0 7c16 3740
000002d0: b872 7cc0 6d32 54c1 68a4 d73f 0ca3 1bc1
000002e0: 3570 5ac1 d9a6 c040 6045 73c0 5a4e 94c1
000002f0: a88b 7b40 368d edc0 269e 51c1 4756 1540
00000300: 368d edc0 269e 51c1 4756 1540 d359 9bc1
00000310: 91ef e1c1 20d2 2841 8170 11c1 0e56 53c1
00000320: 39e4 be40 1f94 1cc1 73ad 69c1 17f4 e040
00000330: 4e0f 0640 5d76 25c1 f962 b13f d20e c6c0
00000340: 590d 1fc1 6246 c640 6453 f1bf 0765 25c1
00000350: 8c5a 373f e03a d5c0 3a66 6cc1 cc6f 9d40
00000360: 297b abc0 7dd0 1ec1 828b 1240 944d 4bc1
00000370: 2a29 90c1 5677 0041 944d 4bc1 2a29 90c1
00000380: 5677 0041 944d 4bc1 2a29 90c1 5677 0041
00000390: c26a 6ac0 617a 2ac1 7205 8440 0498 52c0
000003a0: b8e7 36c1 2612 1d3f 1d23 12bf 4271 00c1
000003b0: d454 923f be47 8cc1 b999 c0c1 fdbf e740
000003c0: fbeb 52c1 4491 89c1 0f0d 9940 d4fd c0c0
000003d0: 65f8 0cc1 79e4 3140 44c1 c7bf 802e 3cc1
000003e0: cd12 0e3f a0dd ab3c 0d51 4bc1 7180 cf3f
000003f0: 2869 593e 8114 89c0 ad52 2d40 ea69 f1c0
