ae_codes_onehot/best_model_fcn2_20_20_2_adamw_0.0001_64_encoded.npy (npy, 203280 bytes, 1 tensors)

array f4 [25394, 2]
000000 8d d3 9b 40 a7 79 23 c1 54 d7 53 bf c2 08 ee 40
       4.869574 -10.2172 -0.8275044 7.438569
000010 8d f7 03 c0 73 63 cb c0 75 15 39 40 a7 6e f8 bf
       -2.0619843 -6.35589 2.8919346 -1.9408768
000020 3f 64 07 40 78 93 a0 c0 e5 d7 b2 40 f9 2a 94 bf
       2.1154935 -5.0180016 5.5888543 -1.1575614
000030 91 96 b2 40 1f f1 97 bf 7a 20 8e 40 d4 a7 24 c0
       5.5808797 -1.1870459 4.4414644 -2.5727434
000040 bf cb fa c0 e6 eb 8e c0 ad 92 8e c0 1b 2f 12 c1
       -7.8373713 -4.466296 -4.4554048 -9.1365
000050 0a 8e a6 c0 40 d2 b3 c0 79 c8 ed 3e 2b f0 f1 c0
       -5.2048388 -5.6194153 0.4644201 -7.5605674
000060 e0 6f 04 c0 cf 79 e6 40 91 dc 08 40 6c 8d 56 c0
       -2.0693283 7.202369 2.1384623 -3.3523817
000070 6a 24 98 c0 e1 c4 96 3f 8f 60 13 41 52 1a e2 c0
       -4.754445 1.1778833 9.211074 -7.065713
000080 a2 2a 9b 40 85 0c 06 c1 93 92 bb 40 a6 b8 7a bf
       4.848954 -8.378057 5.8616424 -0.97938
000090 f5 9e 69 40 6b c4 43 c1 72 d7 00 c1 45 e0 ea bf
       3.650327 -12.235454 -8.052599 -1.8349692
0000a0 d9 e5 82 40 62 46 57 c0 2f ef 14 c0 5e da 4a c0
       4.0905576 -3.3636708 -2.3270986 -3.169578
0000b0 e3 f0 2d c0 3c 2d 00 41 59 9f b2 bf 9e 18 f2 40
       -2.7178276 8.011044 -1.3954879 7.565505
0000c0 1d ba a3 c0 02 9b 89 3f 5d e0 9a c0 82 bc 8b 40
       -5.116469 1.075043 -4.839888 4.366761
0000d0 54 b9 ea c0 76 ed a1 c0 65 d9 bb 40 41 ea 19 c1
       -7.335123 -5.060237 5.8702874 -9.619691
0000e0 eb 40 bb c0 c4 e1 e1 c0 9c e6 3d c0 a4 ab a5 40
       -5.8516746 -7.0588093 -2.9672003 5.177202
0000f0 47 c9 b8 bf 34 06 dc c0 63 c3 82 c0 54 81 a5 c0
       -1.4436425 -6.875757 -4.086351 -5.172037
000100 74 dc 4b 41 4c b7 75 c0 14 80 42 41 d4 1a 8f c0
       12.741322 -3.8393126 12.156269 -4.472025
000110 5f db a9 c0 46 02 89 c0 8d d5 eb 3e 8d d4 3d c1
       -5.3080287 -4.2815275 0.46061364 -11.864392
000120 db 52 16 c0 a7 7b f7 c0 72 5a 86 c0 9b 0c 10 c1
       -2.348807 -7.7338443 -4.1985407 -9.0030775
000130 d1 03 c2 bf 61 61 f0 3f 34 aa 91 40 3e 46 2d c0
       -1.5157415 1.8779718 4.5520267 -2.7074122
000140 85 20 5b 40 0a 78 88 c0 f2 63 3c bf 33 01 ff 3f
       3.4238598 -4.264653 -0.73590004 1.9922241
000150 a8 7e 8b 3f c7 09 f9 3e 11 71 ef c0 49 d1 15 40
       1.0898027 0.48640272 -7.482552 2.3408988
000160 62 f1 05 c1 fc 86 63 c0 0e 14 0c 41 e4 d6 f6 c0
       -8.371431 -3.5551138 8.754896 -7.713732
000170 10 ec 3e 41 42 a1 9a c0 d3 17 7d c0 4a ef 94 c0
       11.932632 -4.832185 -3.954579 -4.65421
000180 5e 49 55 41 c3 52 41 c0 68 18 38 c0 30 26 e4 c0
       13.330412 -3.0206764 -2.8764896 -7.1296616
000190 12 ab e6 c0 f7 99 a7 c0 7b 35 f8 c0 27 36 a5 c0
       -7.2083826 -5.2375445 -7.7565284 -5.1628604
0001a0 df 25 6b 40 b9 f8 4a c1 97 2d 02 c1 31 01 f1 bf
       3.6741865 -12.685723 -8.13613 -1.8828489
0001b0 de 31 22 bf ba 88 88 c0 51 e1 8a 40 65 74 33 c1
       -0.6335734 -4.2666903 4.3400044 -11.215917
0001c0 6f 44 3c c0 b0 46 db c0 ab 0a 28 40 31 a9 d3 bf
       -2.9416769 -6.852379 2.6256511 -1.6536008
0001d0 6e 25 e7 c0 96 d5 a8 c0 17 0a d0 c0 e4 c9 ce 40
       -7.223319 -5.2760725 -6.5012317 6.462145
0001e0 e7 e7 ee c0 f7 60 a7 c0 34 aa 91 40 3e 46 2d c0
       -7.4658084 -5.2305865 4.5520267 -2.7074122
0001f0 a2 2e b7 c0 c7 fd e1 c0 08 df 0e c0 35 ce 73 c0
       -5.7244425 -7.0622287 -2.2323627 -3.8094609
000200 08 df 0e c0 35 ce 73 c0 49 49 05 40 c2 fe 1a c1
       -2.2323627 -3.8094609 2.082598 -9.687197
000210 2e 88 a7 40 37 9f 4b c0 88 4b 0c 41 5f ea fb c0
       5.2353735 -3.1815927 8.76844 -7.8723598
000220 3a d1 06 c1 05 e6 6b c0 5e 49 55 41 c3 52 41 c0
       -8.426081 -3.6859143 13.330412 -3.0206764
000230 4c 41 d8 c0 35 8f 95 c0 fa b2 9d 3f 92 3c cf c0
       -6.757971 -4.6737313 1.2320244 -6.476144
000240 37 54 a6 be 06 d1 91 c0 f3 f6 a8 40 db 53 20 c1
       -0.32486126 -4.5567656 5.280145 -10.020473
000250 f3 f6 a8 40 db 53 20 c1 f3 f6 a8 40 db 53 20 c1
       5.280145 -10.020473 5.280145 -10.020473
000260 05 b5 b8 c0 0a fd 4f c0 d3 17 7d c0 4a ef 94 c0
       -5.772097 -3.2498193 -3.954579 -4.65421
000270 89 4b db c0 3b 62 2b c0 d9 2e fe be 8b 8c c2 c0
       -6.8529706 -2.6778705 -0.49645117 -6.079656
000280 75 1f fc 3f e7 7e 21 c1 4d 1f b0 40 90 64 2e c1
       1.96971 -10.093482 5.503821 -10.899551
000290 5c af 0a c1 ad 08 c2 c0 6f a9 a5 c0 56 cd b2 c0
       -8.667812 -6.063559 -5.176933 -5.5875654
0002a0 d1 03 c2 bf 61 61 f0 3f e6 0b 67 40 01 c3 f6 be
       -1.5157415 1.8779718 3.6101012 -0.4819565
0002b0 3d cc ba c0 55 36 1d 40 49 88 0c 41 95 b6 fb c0
       -5.8374314 2.4564412 8.783273 -7.866038
0002c0 b9 e8 5f c0 1b 7f 15 c1 5e 49 55 41 c3 52 41 c0
       -3.4985793 -9.343532 13.330412 -3.0206764
0002d0 e1 30 43 40 3f 10 97 bf 44 bd 4e c0 f5 98 0a c1
       3.0498583 -1.1801833 -3.2303019 -8.662343
0002e0 18 02 ff bf 4c 92 fa c0 27 bc d9 c0 33 35 f8 3f
       -1.9922514 -7.8303585 -6.804218 1.9391235
0002f0 82 80 ac c0 5d 34 e3 c0 16 fc 23 41 ca 54 c4 c0
       -5.390687 -7.100142 10.249044 -6.13535
000300 bd 10 17 c0 a8 43 d6 c0 f3 f6 a8 40 db 53 20 c1
       -2.3603966 -6.695759 5.280145 -10.020473
000310 5e a0 24 c1 c6 46 4b c0 38 07 fe c0 2e 00 db c0
       -10.289152 -3.1761947 -7.938381 -6.843772
000320 de 86 3f c0 3e 2c e8 c0 4d 32 cd 40 b3 ae a1 c0
       -2.9926066 -7.2554007 6.41239 -5.0525756
000330 df e4 85 c0 ac 55 ab c0 35 29 95 bf 9b 0d 0e c1
       -4.1841884 -5.354208 -1.16532 -8.878322
000340 dc 74 98 c0 6e 6d 5a 3f 37 eb 95 c0 99 ba 0f c1
       -4.764265 0.85323226 -4.6849627 -8.983056
000350 e7 91 75 40 9b cb 46 c1 1c 67 84 bf d2 80 de 40
       3.8370302 -12.424708 -1.0343966 6.953225
000360 09 2a 53 c0 5b f1 12 41 e6 ba 89 c0 33 a0 91 c0
       -3.2994406 9.183925 -4.3040648 -4.5508056
000370 f3 2d 31 40 e3 3c 8d c0 df 13 37 c0 71 3c e2 c0
       2.7684295 -4.4136825 -2.8605878 -7.069878
000380 14 80 42 41 d4 1a 8f c0 02 5e 24 c0 a4 f6 ef 40
       12.156269 -4.472025 -2.5682378 7.4988575
000390 fe 4a 0d 40 57 5c a4 c0 b1 19 15 c0 52 6a d8 c0
       2.2077022 -5.136272 -2.329693 -6.7629786
0003a0 99 9a 8f c0 1f a5 11 c1 10 ec 3e 41 42 a1 9a c0
       -4.487622 -9.102813 11.932632 -4.832185
0003b0 d5 ce bf bf 2a d1 98 40 d1 03 c2 bf 61 61 f0 3f
       -1.4984995 4.7755327 -1.5157415 1.8779718
0003c0 2b 02 83 c0 30 90 a9 c0 3d 4a 98 c0 82 66 be c0
       -4.0940146 -5.298851 -4.7590623 -5.950013
0003d0 14 80 42 41 d4 1a 8f c0 72 5a 86 c0 9b 0c 10 c1
       12.156269 -4.472025 -4.1985407 -9.0030775
0003e0 f3 f6 a8 40 db 53 20 c1 f3 f6 a8 40 db 53 20 c1
       5.280145 -10.020473 5.280145 -10.020473
0003f0 2b 02 83 c0 30 90 a9 c0 5e 49 55 41 c3 52 41 c0
       -4.0940146 -5.298851 13.330412 -3.0206764
