ae_codes_onehot/best_model_fcn1_20_3_adamw_0.0001_64_encoded.npy (npy, 304856 bytes, 1 tensors)

array f4 [25394, 3]
000000 00 b9 fc c0 b2 c6 ee 3f 6d d9 01 41 8e 3a 5b 40
       -7.897583 1.8654387 8.115582 3.425449
000010 bb f6 36 3f 29 39 19 c1 16 42 27 bf 1c 6e ee 3f
       0.7147023 -9.576455 -0.65335214 1.8627353
000020 fe 30 1a 40 d0 36 8d 3c 09 60 dd 3f be b4 67 40
       2.4092402 0.01723805 1.7294933 3.6204066
000030 74 3e 60 c0 37 96 89 c0 a9 c1 0a 41 5d 30 c0 c0
       -3.5038118 -4.299587 8.67228 -6.0059037
000040 41 b2 c4 c0 b4 2d c1 40 a1 78 ce c0 dd 3b 88 c0
       -6.1467595 6.036829 -6.452225 -4.2573075
000050 19 53 f7 40 31 4c a1 c0 ef ea 66 c0 1b 90 ec 40
       7.7288938 -5.0405507 -3.6080892 7.392591
000060 a6 bf 66 bf 6e c0 5f 3f cb 77 76 bd 93 17 81 3f
       -0.9013618 0.87403 -0.060172837 1.0085319
000070 ab ba 59 40 d9 07 a0 3f ce 14 40 3f fc 2b 0c 40
       3.4020183 1.2502395 0.75031745 2.1901846
000080 41 87 d1 be 06 8e 92 c0 28 9a 06 c0 c8 ec cf 40
       -0.40923503 -4.579837 -2.103159 6.497654
000090 88 f2 39 c0 3b 85 e4 3f cb d8 06 c1 86 43 23 c0
       -2.905428 1.7853159 -8.427928 -2.5509963
0000a0 7e 03 50 be 50 da 9d 40 60 bf a1 c0 8f 06 33 40
       -0.20313832 4.9328995 -5.054611 2.7972753
0000b0 a2 23 b5 c0 7b be be c0 eb 44 16 bf ba a9 4c 41
       -5.6605997 -5.960752 -0.5869891 12.791437
0000c0 d7 06 88 c0 84 fc 50 40 a2 c1 f9 40 9f 66 b0 c0
       -4.250835 3.2654123 7.804887 -5.512527
0000d0 d0 7b af c0 34 78 23 41 63 cf 98 c0 c7 4d 27 3f
       -5.483864 10.216846 -4.7753158 0.65353054
0000e0 30 81 3f 41 2e 8a 85 c0 2a ff 43 40 e8 ec 0c c0
       11.96904 -4.1731176 3.062449 -2.2019596
0000f0 d4 44 00 bf 2d 44 11 40 4c f4 31 40 7d 89 13 c0
       -0.50105023 2.2697861 2.7805357 -2.3052666
000100 09 80 ee bf ed 57 06 40 01 0e 8c c0 cf be 23 40
       -1.8632823 2.0991166 -4.3767095 2.558521
000110 73 41 0b c1 e1 29 25 40 5b 27 7c 3f c5 e6 5c c1
       -8.703479 2.580681 0.9849755 -13.80634
000120 ab 86 af bf df db 27 40 08 91 43 c0 ed b3 d7 c0
       -1.3712972 2.6227949 -3.055727 -6.7407136
000130 69 35 21 40 d5 a4 03 c1 de 48 b7 bf 46 ce 29 40
       2.518885 -8.227742 -1.4319112 2.653215
000140 e0 32 ba 3f 3b f2 bc c0 69 53 98 3f d7 3e 23 41
       1.4546776 -5.904569 1.1900455 10.202842
000150 cc 58 62 3f 21 ca 16 40 35 04 ed be 3e 66 d1 c0
       0.88416743 2.356087 -0.46292272 -6.5437307
000160 d1 8f 26 bf 5b 44 29 c1 b1 12 c8 3f f7 1a 46 3f
       -0.65063196 -10.579188 1.5630704 0.77384895
000170 80 c4 8f 40 06 2b 65 be da 82 5b 3e 15 cb 43 3e
       4.492737 -0.22379693 0.21436635 0.19120438
000180 0c d3 19 c1 05 e5 5a bf dc 77 12 41 1b 0d e9 c0
       -9.614025 -0.85505706 9.154263 -7.28285
000190 a4 de f3 bf 6d 0a 54 41 de 4b 6b be 5c 39 f6 3f
       -1.905232 13.252545 -0.2297816 1.9236255
0001a0 71 f8 43 bf d2 c6 2b bf a9 88 b9 40 08 91 b5 40
       -0.76550967 -0.6710025 5.797932 5.673954
0001b0 cf a7 a9 3f e6 4b 50 40 48 5a 10 40 98 4d 6b 3f
       1.3254336 3.2546325 2.2555103 0.91915274
0001c0 3a ab 5a 40 06 09 96 3f 9b ec ca c0 75 5a b6 bf
       3.4167008 1.1721504 -6.3413825 -1.4246355
0001d0 94 30 55 c0 ad 19 a6 c0 ab e2 54 c0 55 7c f8 40
       -3.33109 -5.1906343 -3.3263347 7.7651772
0001e0 6c 77 af c0 64 ae 40 c0 68 40 eb 40 59 d1 c5 c0
       -5.483328 -3.010644 7.351612 -6.181805
0001f0 f6 4e 88 bf 22 d3 41 c0 a1 25 77 c0 66 28 73 be
       -1.0649097 -3.0285115 -3.8616717 -0.2374588
000200 4a 20 94 40 a8 4a 08 c1 24 86 77 40 4e cf ef c0
       4.6289415 -8.518227 3.8675623 -7.4940557
000210 0c 8b 17 c0 28 7c 77 40 df 48 43 c0 02 d1 b4 c0
       -2.3678617 3.866953 -3.0513227 -5.6505136
000220 2b 00 fc 3f 1b d2 12 41 27 4b fd c0 f3 6d 68 bf
       1.9687551 9.176295 -7.915424 -0.9079277
000230 16 ff 2f 41 47 1c 8b be dd 53 82 3e ca 83 c2 3d
       10.999777 -0.2717001 0.25454608 0.09497793
000240 54 6c 09 c1 5a 78 2e 3f 2b 98 39 41 1f 22 e4 be
       -8.588947 0.6815239 11.59965 -0.44557282
000250 78 fb 24 40 9c 77 1a 40 9a 5b 86 bf 73 5b b0 3f
       2.5778484 2.4135504 -1.0496705 1.3777908
000260 fd 70 04 3e 74 56 1c be 11 4a 04 40 c9 4d 63 bf
       0.12933727 -0.15267354 2.0670207 -0.88790566
000270 59 5f b5 c0 7d 9c 77 3f 75 f0 15 41 88 e5 bc c0
       -5.667889 0.9672316 9.371205 -5.903019
000280 11 c9 6c 40 53 b8 70 c0 e4 0d 0d c0 3d 40 8a 3e
       3.6997721 -3.7612503 -2.2039728 0.27002135
000290 84 91 6d 40 16 1d 05 c1 9a 21 d0 3f c1 84 c1 40
       3.7120066 -8.319601 1.6260254 6.0474553
0002a0 31 c3 e3 bf c9 ea bb 40 a5 a5 a3 40 3e 0b 47 3f
       -1.7793943 5.8724103 5.1139703 0.7775153
0002b0 e8 68 09 40 a4 b3 5c 40 16 23 5c bf b9 94 1d 3f
       2.147028 3.4484644 -0.85991037 0.6155506
0002c0 c5 80 af be 53 34 03 c1 cd b1 1b 40 7f d4 23 c1
       -0.3427793 -8.200274 2.432727 -10.239379
0002d0 d2 ba b9 bf c5 00 2a 40 2b 33 b5 3f ad 19 a6 c0
       -1.4510138 2.656297 1.415624 -5.1906343
0002e0 ab e2 54 c0 55 7c f8 40 51 91 e4 3e c2 54 80 40
       -3.3263347 7.7651772 0.44642118 4.0103464
0002f0 cf d7 8b 3f 75 c0 b4 c0 1b 4e fa bf 28 55 d9 3f
       1.0925235 -5.6484933 -1.9555086 1.6979113
000300 75 c0 b4 c0 1b 4e fa bf 28 55 d9 3f bc 68 ea bf
       -5.6484933 -1.9555086 1.6979113 -1.8313212
000310 37 ff 37 40 53 d7 18 41 39 75 dc c0 af 7c 36 c0
       2.874952 9.552569 -6.8893094 -2.85136
000320 17 32 d4 40 4f e5 d3 c0 7c a6 c4 3e 4d ff 28 41
       6.6311145 -6.621742 0.38408267 10.562329
000330 8c 9a 1d bf 1e 26 ec 3f 6a 44 a6 bf 54 6c 09 c1
       -0.61563945 1.8449132 -1.2989628 -8.588947
000340 5a 78 2e 3f 2b 98 39 41 04 6f 04 c0 fd 18 07 40
       0.6815239 11.59965 -2.0692759 2.1109002
000350 1c 66 13 bf be 9c 85 c0 75 25 a5 bf 8a 79 b4 40
       -0.5757768 -4.1753836 -1.2902056 5.6398363
000360 38 82 e9 bf 2b 3a 1c 3f d6 6d 57 40 f5 2c a9 c0
       -1.8242865 0.6102626 3.3660789 -5.286738
000370 23 53 b7 3e 5c e8 48 41 f5 2c a9 c0 23 53 b7 3e
       0.35805616 12.556728 -5.286738 0.35805616
000380 5c e8 48 41 f5 2c a9 c0 23 53 b7 3e 5c e8 48 41
       12.556728 -5.286738 0.35805616 12.556728
000390 69 dd dd c0 a1 b9 e6 3f cd 2e 4a 3f 47 1c 8b be
       -6.9332776 1.80254 0.7897766 -0.2717001
0003a0 dd 53 82 3e ca 83 c2 3d 30 32 5c c0 bd bf 1f 40
       0.25454608 0.09497793 -3.4405632 2.4960778
0003b0 c1 ae cc bf 8c 95 d3 bf da 13 46 3e 39 ca 7a 40
       -1.5990831 -1.6530013 0.1934351 3.9185927
0003c0 64 b1 73 c0 65 90 39 40 ab b6 01 41 3d 17 0d c1
       -3.807702 2.8994381 8.107097 -8.818173
0003d0 de 4a 97 3f 51 a2 f0 40 72 f2 99 3e 36 99 17 40
       1.1819723 7.519814 0.30067784 2.3687263
0003e0 67 56 af bf 36 f4 3a 3f 3b f1 0b 40 71 22 f7 be
       -1.3698243 0.73028886 2.1865985 -0.48268464
0003f0 9b ec ca c0 75 5a b6 bf 94 30 55 c0 66 90 01 3e
       -6.3413825 -1.4246355 -3.33109 0.1265274
