ae_codes_onehot/best_model_fcn2_10_20_3_adamw_0.0001_64_encoded.npy (npy, 304856 bytes, 1 tensors)

array f4 [25394, 3]
2.4943979 19.203316 2.6887305 -0.8592111 -4.9601955 -6.5425196 -2.214301 8.641328
-2.831945 -0.14098047 8.24446 5.7000318 3.6622515 19.882795 2.7945952 -1.3510141
7.616864 4.670061 -1.6324096 7.927786 4.7696 -1.0670658 8.539434 6.380263
1.434336 10.588914 3.617808 -1.8219434 12.623028 -3.5924098 -1.8529439 11.732503
-4.933924 -0.19843128 14.51999 -1.9028496 -5.801416 -5.610939 -6.117361 -0.7526963
7.829979 4.5656576 -5.4521613 1.6732314 -5.7480626 -1.8723284 9.1282015 8.050062
0.8792082 14.479855 2.556123 -1.6351525 7.567375 7.4166713 3.9184754 22.927675
2.0584652 -3.9692872 8.314459 -6.998269 -0.67852616 8.457251 5.8793955 -0.8690014
9.206342 -3.080671 -4.5814896 1.2077495 -7.735865 -1.6558043 -5.5306664 -8.030373
-3.3155458 5.9148235 -5.735607 -5.335941 1.4614294 -5.745933 -3.7485974 7.5998964
-3.0266724 0.50223815 15.699912 2.4205081 -1.0209775 10.131408 -4.1527543 -5.647121
-2.5251849 -6.46205 2.905907 17.7158 -3.312956 -2.1197133 11.555363 -3.943422
-2.5642812 8.0347805 6.755717 -2.3194783 8.099153 7.7847557 -3.2924902 7.7567596
-4.4619255 1.1757685 12.837523 -2.1151676 0.03059256 19.960335 -4.885252 -1.7103281
8.094005 -2.8102365 -3.5542486 4.442766 -8.729334 -1.2901455 8.756188 6.488712
-1.5247632 8.877461 4.9760346 -2.7460032 5.630904 -9.847934 -2.7244227 6.7799816
-0.18444207 -4.934202 7.017542 -8.602227 -4.7456155 7.011364 -4.2412868 -1.7931336
9.539018 5.2451634 -2.4789665 8.873651 5.268659 -2.4966257 12.7563505 -4.6656866
-2.8173833 7.3262873 6.9689074 -2.9959474 9.465936 -3.0390732 -2.588751 6.188738
-3.7033 -3.393377 6.8906336 -4.404593 -0.26523438 15.347466 -1.5927657 -3.4178774
9.556154 -8.158212 -2.1278284 12.778959 -2.9506352 -1.2359207 9.874095 -6.1941175
-2.0248892 11.648595 -2.7378125 -2.517681 3.9423673 0.51279604 -2.562153 6.5130367
-3.3389423 -5.3896704 0.75105333 -6.979587 -2.8987005 6.249116 -2.5066173 -1.2901455
8.756188 6.488712 -1.3636793 10.048562 -3.2679465 0.17599556 19.954622 -5.334423
0.17599556 19.954622 -5.334423 4.7087407 21.405386 1.7148963 -1.314282 8.686089
6.60291 -2.1298282 9.577476 5.3708153 -3.2669508 5.0131893 -3.4938753 -2.8173833
7.3262873 6.9689074 -3.6816585 8.590023 -4.858868 0.5992943 16.754774 -2.3777997
-3.360908 10.703216 -2.8070621 3.083971 21.085817 3.0951629 3.083971 21.085817
3.0951629 3.083971 21.085817 3.0951629 -4.549532 8.815447 -2.9128978 -2.4966257
12.7563505 -4.6656866 -4.8380966 6.7648315 -3.8966415 2.4937158 14.896533 0.88198805
2.4831386 15.210809 0.8062554 -3.8386009 11.08024 -2.0234244 -4.0180697 5.6810455
-3.803952 -2.0466769 10.9871435 -5.015878 -3.5542486 4.442766 -8.729334 -1.3539833
00000000: 37a4 1f40 64a0 9941 2914 2c40 42f5 5bbf
00000010: ecb9 9ec0 525c d1c0 1cb7 0dc0 e142 0a41
00000020: 963e 35c0 2f5d 10be 4fe9 0341 a966 b640
00000030: 5462 6a40 f70f 9f41 a6da 3240 08ee acbf
00000040: 5abd f340 2471 9540 ccf2 d0bf 6cb0 fd40
00000050: 90a0 9840 9d95 88bf 86a1 0841 1d2b cc40
00000060: 5298 b73f 316c 2941 2b8a 6740 7135 e9bf
00000070: ecf7 4941 0bea 65c0 442d edbf 55b8 3b41
00000080: b5e2 9dc0 9231 4bbe e151 6841 9390 f3bf
00000090: 33a5 b9c0 d08c b3c0 6cc1 c3c0 b4b0 40bf
000000a0: 308f fa40 de19 9240 1b78 aec0 722c d63f
000000b0: 21f0 b7c0 75a8 efbf 1d0d 1241 0ecd 0041
000000c0: ca13 613f 7cad 6741 8597 2340 ad4c d1bf
000000d0: f027 f240 5f55 ed40 4dc8 7a40 e16b b741
000000e0: e5bd 0340 cd08 7ec0 0608 0541 d2f1 dfc0
000000f0: e4b3 2dbf e650 0741 0224 bc40 e076 5ebf
00000100: 2d4d 1341 b729 45c0 909b 92c0 8997 9a3f
00000110: 358c f7c0 65f1 d3bf 38fb b0c0 687c 00c1
00000120: e731 54c0 3c46 bd40 188a b7c0 07c0 aac0
00000130: 1e10 bb3f afde b7c0 05e9 6fc0 5a32 f340
00000140: 00b5 41c0 ae92 003f d732 7b41 9be9 1a40
00000150: 64af 82bf 3f1a 2241 5de3 84c0 37b5 b4c0
00000160: a19c 21c0 1dc9 cec0 61fa 3940 f5b9 8d41
00000170: 7907 54c0 62a9 07c0 c4e2 3841 0761 7cc0
00000180: 2f1d 24c0 768e 0041 d52e d840 5572 14c0
00000190: 2196 0141 b81c f940 29b8 52c0 6037 f840
000001a0: 18c8 8ec0 957f 963f 7f66 4d41 e85e 07c0
000001b0: 409d fa3c c4ae 9f41 fc53 9cc0 08ec dabf
000001c0: 0b81 0141 eada 33c0 cf78 63c0 242b 8e40
000001d0: 5aab 0bc1 7d23 a5bf 5919 0c41 87a3 cf40
000001e0: 712b c3bf 150a 0e41 ad3b 9f40 84be 2fc0
000001f0: 5e30 b440 2391 1dc1 f15c 2ec0 9cf5 d840
00000200: 62de 3cbe fce4 9dc0 b48f e040 b9a2 09c1
00000210: 15dc 97c0 185d e040 9fb8 87c0 6785 e5bf
00000220: d19f 1841 61d8 a740 63a7 1ec0 79fa 0d41
00000230: db98 a840 b7c8 1fc0 031a 4c41 4e4d 95c0
00000240: 0250 34c0 f270 ea40 4a01 df40 9abd 3fc0
00000250: 7974 1741 2d80 42c0 19ae 25c0 240a c640
00000260: de02 6dc0 172d 59c0 1280 dc40 6df2 8cc0
00000270: cdcc 87be 398f 7541 bfdf cbbf 81be 5ac0
00000280: 02e6 1841 0988 02c1 572e 08c0 9e76 4c41
00000290: 35d7 3cc0 a632 9ebf 4bfc 1d41 3636 c6c0
000002a0: c997 01c0 a560 3a41 5238 2fc0 af21 21c0
000002b0: bf4f 7c40 9a46 033f 51fa 23c0 cc6a d040
000002c0: 3bb1 55c0 2e78 acc0 0845 403f c758 dfc0
000002d0: 4f84 39c0 c2f8 c740 6b6c 20c0 7d23 a5bf
000002e0: 5919 0c41 87a3 cf40 0b8d aebf e9c6 2041
000002f0: 0926 51c0 2e38 343e 11a3 9f41 98b3 aac0
00000300: 2e38 343e 11a3 9f41 98b3 aac0 01ae 9640
00000310: 3b3e ab41 b981 db3f 643a a8bf 38fa 0a41
00000320: 0a4b d340 1b4f 08c0 573d 1941 b8dd ab40
00000330: b915 51c0 0c6c a040 a79b 5fc0 0250 34c0
00000340: f270 ea40 4a01 df40 4ba0 6bc0 bc70 0941
00000350: d97b 9bc0 5a6b 193f c709 8641 df2d 18c0
00000360: 1e19 57c0 5f40 2b41 e8a6 33c0 c85f 4540
00000370: c1af a841 2617 4640 c85f 4540 c1af a841
00000380: 2617 4640 c85f 4540 c1af a841 2617 4640
00000390: c495 91c0 120c 0d41 eb6c 3ac0 b7c8 1fc0
000003a0: 031a 4c41 4e4d 95c0 b0d1 9ac0 8079 d840
000003b0: 9362 79c0 0a99 1f40 3358 6e41 f8c9 613f
000003c0: beeb 1e40 795f 7341 c166 4e3f a3ab 75c0
000003d0: aa48 3141 c97f 01c0 0794 80c0 20cb b540
000003e0: f373 73c0 c1fc 02c0 57cb 2f41 1382 a0c0
000003f0: cf78 63c0 242b 8e40 5aab 0bc1 534f adbf
