ae_codes_onehot/best_model_fcn2_20_20_1_adamw_0.0001_64_encoded.npy (npy, 101704 bytes, 1 tensors)

array f4 [25394, 1]
00000000: 3a25 ee3f c998 28c2 8966 d440 27a9 9a3f
00000010: a291 da3f 3713 133f 3439 133f 9e68 2b3f
00000020: a7a4 c7c0 d554 8ebf c8a1 4bc0 6bc0 2d40
00000030: 5c4d 07c2 f68a 9a3f f337 b9c1 16b6 263f
00000040: 2335 e33f 5a29 fc3e 2156 0040 db12 34c1
00000050: 4861 283f 700f ffbe b834 f5c1 f9ab 40c2
00000060: 3130 42c1 6364 dcc1 7a3d a9c0 77f6 f13f
00000070: 5aba 4bc0 e6c0 39c2 7883 db40 0797 eabf
00000080: 0c85 403d 7a0b b73d 67b4 91c0 7a9e 4c40
00000090: 0851 3a41 21b4 6541 7fd3 79c1 b048 2a3f
000000a0: 54fe 2a3f aa0e 86c1 1ea0 95be 9c30 87c1
000000b0: 8d5d d9c0 8e53 273f 4880 c1bc 93fb 68c0
000000c0: b2b6 8c3d 10f9 67bf a40f 92c0 1c31 aac0
000000d0: 8545 0840 cb38 49c1 9a76 71bf 8603 dbbe
000000e0: f622 0fbf 8211 963f 034d 92c0 2603 ecc1
000000f0: 2484 adc0 b048 2a3f e660 03c0 6ecc d9be
00000100: 6ecc d9be 1f8d 3140 3afd 283f d867 283f
00000110: c726 b3c0 b2b6 8c3d 732c a3c0 ff6b 3140
00000120: 4229 76bf d208 f33f d208 f33f d208 f33f
00000130: ba85 b8c0 93fb 68c0 3791 dbc0 aec8 5640
00000140: 1ac5 1440 4ca8 cfbe 6f63 c1c0 10e0 19c0
00000150: 7fd3 79c1 8239 963f 6944 84c1 290a 283f
00000160: 29a2 6141 b2b6 8c3d 42e8 973f a425 6341
00000170: 099f 9140 5a56 85c1 afac 4241 ce94 183f
00000180: e2af 64bf d208 f33f 2720 4ac1 c4f6 93c0
00000190: ccfd 81bf acea 933f 2e02 efbf 6757 3540
000001a0: 78d6 3bc1 94fb 1cbf 4d44 0840 2ff0 14c2
000001b0: 0825 ebc1 2c39 1cc0 4c7f d93f 6a96 85bf
000001c0: 7a0b b73d ca17 a4c1 1cbe dd3f 1282 78bf
000001d0: 9f09 0fc0 4880 c1bc 8178 59c2 7fd3 79c1
000001e0: 864b ecbf cc4c ecbf 7a0b b73d 21b4 6541
000001f0: d208 f33f d208 f33f 864b ecbf b2b6 8c3d
00000200: aec8 5640 c0b8 123f 7053 30c1 015e 8ac0
00000210: ec3e 00c0 9664 4dc0 1ae6 0440 a141 d3c0
00000220: 46f6 d9c0 896f 94c0 a37c 10c2 a654 223f
00000230: d326 bd3f 1f2f 64c0 9d74 4ec1 4880 c1bc
00000240: 4723 113f 77f6 f13f 0c85 403d 4c7b 1e3f
00000250: c4c8 dd3f b2b6 8c3d 8640 63bf b2b6 8c3d
00000260: d867 283f c587 7bc0 1a17 0f40 285c 83c1
00000270: e047 dd40 c498 9f3f e541 31c1 0c22 f13f
00000280: 0677 d03f 2957 63c1 d883 05c1 b581 3840
00000290: fc12 1d3f a7a9 47c1 6064 283f 40b8 293f
000002a0: 57c1 6bc0 190b 1a3f 1a2f eabf 31a7 21bf
000002b0: 5e19 29bf f5e5 2a40 9604 de3f ec05 2240
000002c0: 9dfd 3bbf eeee 173f 0c66 85c1 d867 283f
000002d0: 1586 3d40 4334 4e40 4dcd 2e40 d208 f33f
000002e0: ae11 1cc0 d669 69c0 290a 283f 4d88 1ebf
000002f0: 6f1f 48c0 5e06 1e3f e58c a641 d208 f33f
00000300: 65f4 2a40 4f88 dbc0 c4c8 dd3f 6d13 1c41
00000310: 4e1c dc3f 8efc 60c0 3ac1 19c1 e90d 133f
00000320: 0d5d 3140 21fc 9540 7a0b b73d 8720 43bf
00000330: bd4e 2c3f 9278 a7be 06fe 47c2 61fc 53c1
00000340: 398c 3bc1 fb20 a4c1 5455 2fc2 0595 0d40
00000350: 67b4 91c0 96e7 67c0 5a62 cac0 700f ffbe
00000360: a94b cb3f 7a0b b73d 6905 0640 f6dc b2c0
00000370: 5a29 fc3e 30a2 4440 68de 31c2 c0b8 123f
00000380: 0c85 403d 585c cf3f ea5c 0340 1f67 2fc2
00000390: b275 1ac2 05c6 0fbf 8b95 bf3f b0ad 9040
000003a0: b048 2a3f ab85 5740 d208 f33f 585c cf3f
000003b0: c18e 8fbf 414b 1bc0 627e cdc0 cd13 6dc1
000003c0: 810c e2c1 c0e8 0240 6bc0 2d40 0633 273f
000003d0: ecb1 5340 840b 7cbf 9eab 92bf b0b9 48c1
000003e0: d51e 193f d3c2 44c1 bce1 32c0 a109 b0c1
000003f0: 0eb2 1bc2 faac 953f 07ef 4040 0f9d 6fc0
1.8605111 -42.149204 6.6375165 1.2082871 1.7075694 0.57451195 0.5750916 0.6695651
-6.238849 -1.1119639 -3.1817493 2.7148693 -33.825546 1.2073658 -23.152319 0.6512159
1.7750591 0.492503 2.005257 -11.254603 0.6577344 -0.49816465 -30.650742 -48.167942
-12.1367655 -27.549017 -5.2887545 1.890334 -3.183249 -46.438377 6.8597984 -1.832734
0.047001883 0.08937736 -4.553272 3.1971726 11.644783 14.356477 -15.614135 0.6651716
0.66794324 -16.75716 -0.29223722 -16.898735 -6.79267 0.6536187 -0.02362074 -3.6403549
0.06870784 -0.90614414 -4.5644093 -5.318495 2.1292431 -12.576365 -0.94321597 -0.42776126
-0.5591272 1.1724093 -4.571901 -29.501537 -5.4223804 0.6651716 -2.0527892 -0.4253878
-0.4253878 2.7742383 0.66011393 0.65783453 -5.5984836 0.06870784 -5.099176 2.7722166
-0.96156704 1.8987067 1.8987067 1.8987067 -5.766324 -3.6403549 -6.8614764 3.3559985
2.3245301 -0.40558088 -6.043388 -2.4043007 -15.614135 1.17363 -16.533403 0.65640503
14.10209 0.06870784 1.1867754 14.19669 4.5506635 -16.667164 12.167159 0.5960206
-0.89330876 1.8987067 -12.63285 -4.6238728 -1.0155578 1.1555991 -1.867254 2.8334596
-11.739861 -0.6132138 2.1291687 -37.234554 -29.393082 -2.4409895 1.6991973 -1.0436528
0.08937736 -20.511616 1.7323642 -0.9707347 -2.2349622 -0.02362074 -54.36768 -15.614135
-1.8460548 -1.8460937 0.08937736 14.356477 1.8987067 1.8987067 -1.8460548 0.06870784
3.3559985 0.57313156 -11.0203705 -4.323975 -2.0038404 -3.2092643 2.0765443 -6.6017613
-6.8113127 -4.638615 -36.121716 0.63410413 1.4777473 -3.565376 -12.90347 -0.02362074
0.56694454 1.890334 0.047001883 0.61906886 1.7326894 0.06870784 -0.8877033 0.06870784
0.65783453 -3.9301617 2.235785 -16.419998 6.915024 1.2468495 -11.078588 1.8838515
1.6286323 -14.208779 -8.344688 2.8829167 0.6135709 -12.478919 0.6577816 0.6629677
-3.6836755 0.60173184 -1.8295624 -0.6314574 -0.6605433 2.6702855 1.734515 2.5316114
-0.7343386 0.5934895 -16.674828 0.65783453 2.9613087 3.2219398 2.7312806 1.8987067
-2.438579 -3.6470847 0.65640503 -0.6192673 -3.1269186 0.61728466 20.818796 1.8987067
2.6711667 -6.860389 1.7326894 9.754743 1.7196138 -3.5154147 -9.609674 0.574431
2.7713044 4.6870275 0.08937736 -0.7622151 0.67307645 -0.32709175 -49.99807 -13.249116
-11.721734 -20.516104 -43.83333 2.2122204 -4.553272 -3.62351 -6.324506 -0.49816465
1.5882465 0.08937736 2.0940802 -5.589473 0.492503 3.0723991 -44.467194 0.57313156
0.047001883 1.6200056 2.052546 -43.850704 -38.614937 -0.5616153 1.4967512 4.521202
0.6651716 3.3675334 1.8987067 1.6200056 -1.121544 -2.4264681 -6.4216776 -14.817334
-28.256105 2.045456 2.7148693 0.6531223 3.3077345 -0.9845507 -1.1458623 -12.545334
0.5981267 -12.2975645 -2.7950277 -22.004702 -38.92388 1.1693413 3.014589 -3.743961
