ae_codes_onehot/best_model_fcn1_5_2_adam_0.0001_64_encoded.npy (npy, 203280 bytes, 1 tensors)

array f4 [25394, 2]
0	0xc0383d58	-2.8787441
1	0x400938b9	2.144087
2	0x3ff87242	1.9409869
3	0x3fa6fb3e	1.3045423
4	0xbe053319	-0.13007773
5	0xbf16a8be	-0.5885123
6	0xc060781b	-3.5073307
7	0xbfd2167e	-1.6413114
8	0xbfb1f512	-1.3902915
9	0xbedd3682	-0.4320565
10	0xc061e806	-3.5297866
11	0xbfa3e0c1	-1.2802964
12	0xc0604b4c	-3.5045958
13	0xbf8b38a5	-1.0876662
14	0xc058cb15	-3.3873951
15	0xbf890dd2	-1.0707343
16	0x40979316	4.736705
17	0x3ff406d4	1.9064584
18	0x3e47f4ec	0.19527024
19	0xbf23f299	-0.6404205
20	0x408f9751	4.4872212
21	0x3f1f22a8	0.62162256
22	0xbf17c36e	-0.5928258
23	0xbe5f0ff7	-0.21783434
24	0x4049dcf8	3.1541119
25	0x3ff723ce	1.9307802
26	0xc06430e0	-3.565483
27	0xbfc10874	-1.5080705
28	0x40730d4e	3.797687
29	0x3fec89a8	1.8479509
30	0xc0bce011	-5.902352
31	0x3fec33c5	1.8453299
32	0xc050ec46	-3.264421
33	0x40342abb	2.815108
34	0xc05fa713	-3.4945724
35	0xbf86aee2	-1.052212
36	0xc00ec89c	-2.2309942
37	0x401e7a39	2.4762099
38	0x40aa319a	5.318555
39	0x4034f97e	2.8277278
40	0xc034c06e	-2.824245
41	0xbf9e715c	-1.2378345
42	0x3f1826c1	0.59434134
43	0xbf5ee694	-0.87070584
44	0x402f6f35	2.7411625
45	0x3fc15c3b	1.5106272
46	0x3ff97478	1.9488668
47	0x3fa9c67e	1.32637
48	0x408970e2	4.2950296
49	0x4038e9c3	2.8892677
50	0x4042dd63	3.0447624
51	0x3fc203c1	1.5157396
52	0x40507d01	3.2576296
53	0x3f9daf13	1.2319053
54	0xc035fac8	-2.8434315
55	0x4004a750	2.072712
56	0x409fa64f	4.9890513
57	0x3f16f0b5	0.5896104
58	0x40005179	2.0049727
59	0x3fccbf76	1.5995929
60	0xbe820cb3	-0.25400314
61	0xbf51b5ea	-0.81918204
62	0x3f70b82f	0.9403104
63	0xbf3c2387	-0.7349171
64	0xc0bfd0f1	-5.9942555
65	0x3feaf133	1.8354858
66	0xc0c0ad01	-6.0211186
67	0x3fedc670	1.8576183
68	0x40a01e9e	5.0037374
69	0x3fb7d98a	1.4363263
70	0xc075a524	-3.8382044
71	0x40ad6ba7	5.419391
72	0xbec1c40a	-0.37844878
73	0xbf149bc2	-0.5805017
74	0x3c13c0d0	0.009018138
75	0xbf51da72	-0.81973946
76	0x401a23ea	2.408442
77	0x403d4db7	2.9578683
78	0xc055c03f	-3.3398588
79	0xbf849a26	-1.0359542
80	0xc0555afe	-3.3336787
81	0xbf850c3c	-1.0394359
82	0x4013b0a4	2.3076563
83	0x401fb364	2.4953241
84	0xc02da3fa	-2.7131333
85	0xbfa1e67f	-1.2648467
86	0x405c9d03	3.4470832
87	0x403104b2	2.7659116
88	0x40a8b692	5.2722864
89	0x400ec1c7	2.2305772
90	0xc0a9f22f	-5.3108134
91	0x4007b59f	2.1204603
92	0xc0bf9f7d	-5.988219
93	0x3fea64f3	1.8312057
94	0x3fe1e72e	1.7648675
95	0xbf1cc864	-0.6124327
96	0xc0bf9b09	-5.987675
97	0x3fe9dc63	1.8270382
98	0xbddac471	-0.106819995
99	0xbf04a2d5	-0.5181096
100	0x40ac3108	5.3809853
101	0x3fb1371c	1.3844943
102	0x40cd6f5e	6.4198446
103	0x400fcc3c	2.2468405
104	0xc00d87a4	-2.2114038
105	0x4026b560	2.6048203
106	0x40a542e2	5.1644144
107	0x4024755a	2.5696626
108	0xbe879fca	-0.26489097
109	0xbeacb84a	-0.3373435
110	0xc004a7ef	-2.0727499
111	0x406d42b0	3.7071953
112	0xc01aa306	-2.4162002
113	0x409cf217	4.904552
114	0xc0586a47	-3.3814867
115	0xbfe2459d	-1.7677494
116	0x40832ec2	4.0994577
117	0x3f7e9156	0.99440515
118	0x403f5052	2.9892774
119	0x3fbf4b15	1.4944788
120	0x4069b599	3.6517088
121	0x3fa15d46	1.260659
122	0xc055c03f	-3.3398588
123	0xbf849a26	-1.0359542
124	0x3f85ddac	1.0458274
125	0xbf044f50	-0.5168352
126	0x3f150477	0.5820994
127	0xbf178c18	-0.5919814
128	0x3f150477	0.5820994
129	0xbf178c18	-0.5919814
130	0xc04e6c20	-3.2253494
131	0x40862217	4.1916614
132	0xc05384c9	-3.3049796
133	0xbf838207	-1.0274056
134	0xc0bbacc1	-5.864838
135	0x3fec1dae	1.8446558
136	0x4092a596	4.582713
137	0x3ff37b41	1.9021989
138	0xc0bf9b09	-5.987675
139	0x3fe9dc63	1.8270382
140	0x40bab06e	5.834037
141	0x3fd6d72e	1.6784418
142	0xbf12d634	-0.573581
143	0xbe6af0e5	-0.22943456
144	0xbe38aa06	-0.18033609
145	0xbf0158f3	-0.5052635
146	0xc0380dd8	-2.875845
147	0x40068488	2.101839
148	0xc0380dd8	-2.875845
149	0x40068488	2.101839
150	0xc0380dd8	-2.875845
151	0x40068488	2.101839
152	0x402d5a91	2.7086527
153	0x3fb51ad7	1.4148816
154	0x3fe1e72e	1.7648675
155	0xbf1cc864	-0.6124327
156	0x4098d970	4.7765427
157	0x400bc9c4	2.1841898
158	0xbecfcd0e	-0.40586132
159	0xbf291164	-0.6604216
160	0xc0593349	-3.3937552
161	0x40932679	4.5984464
162	0xbfd4dfbe	-1.6630781
163	0x400f4c49	2.239031
164	0x40a1b191	5.0529256
165	0x40035a8b	2.0524013
166	0x40ae3f6d	5.4452424
167	0x3fb24fc7	1.3930596
168	0x401a23ea	2.408442
169	0x403d4db7	2.9578683
170	0xc05869c2	-3.381455
171	0xbfe20a9a	-1.7659485
172	0x4057398f	3.362888
173	0x4029ce81	2.653229
174	0xc0d0582d	-6.5107636
175	0x4028d767	2.638147
176	0xbe00880a	-0.12551895
177	0xbf812303	-1.008881
178	0xc0bf9b09	-5.987675
179	0x3fe9dc63	1.8270382
180	0xc0577e2a	-3.3670754
181	0xbfe5c606	-1.7951057
182	0xbe7647d2	-0.24050835
183	0xbf4fa084	-0.811043
184	0xbde16d43	-0.11007168
185	0xbf9675d9	-1.1754714
186	0x405e990b	3.478091
187	0x40327e00	2.7889404
188	0x3ef07ae4	0.46968758
189	0xbf623f3a	-0.88377726
190	0xc0c365c8	-6.1061745
191	0x4004acdb	2.0730503
192	0x3e264776	0.16238198
193	0xbe2bce17	-0.16777836
194	0xc0380dd8	-2.875845
195	0x40068488	2.101839
196	0x40953c82	4.663636
197	0x4018217c	2.3770437
198	0x40af1803	5.471681
199	0x3fc1afe9	1.5131809
200	0x3dc7d768	0.09757882
201	0xbf1510fe	-0.58229053
202	0xc0dc90d9	-6.8926816
203	0x40983a21	4.757096
204	0x3f7db4a9	0.9910379
205	0xbf4d6ea4	-0.8024695
206	0xbea27069	-0.31726387
207	0xbf4ded94	-0.8044064
208	0x40bd67af	5.9189067
209	0x4020810a	2.507876
210	0xc027bae3	-2.6207817
211	0x4090dc79	4.526913
212	0xc00de294	-2.2169542
213	0x402727f9	2.6118147
214	0x3ff82932	1.9387572
215	0x3fa6ee2b	1.3041433
216	0x408c8b01	4.3919683
217	0x3fd8e3ed	1.6944557
218	0x3fcbd7a6	1.5925186
219	0xbe9ed8b6	-0.31024712
220	0xbfb135a8	-1.38445
221	0xbedb4036	-0.42822427
222	0x3e526cb8	0.20549285
223	0xbf188a5f	-0.5958614
224	0xc0c0ad01	-6.0211186
225	0x3fedc670	1.8576183
226	0x404b5a0a	3.1773705
227	0x40209758	2.5092373
228	0xbfa64670	-1.2990246
229	0xbf15f05a	-0.5856987
230	0x3e23f0f2	0.16009882
231	0xbf5fd222	-0.8743001
232	0x407d89e8	3.9615421
233	0x3f03e622	0.5152303
234	0xc0bf9f7d	-5.988219
235	0x3fea64f3	1.8312057
236	0x3ffceba2	1.975941
237	0x40001db4	2.001813
238	0x401a23ea	2.408442
239	0x403d4db7	2.9578683
240	0x3f4f6011	0.8100596
241	0xbf1701b3	-0.5898697
242	0x3f8def4c	1.1088653
243	0xbf493be9	-0.7860704
244	0xc0c0ad01	-6.0211186
245	0x3fedc670	1.8576183
246	0x3c13c0d0	0.009018138
247	0xbf51da72	-0.81973946
248	0xc0380dd8	-2.875845
249	0x40068488	2.101839
250	0xc0380dd8	-2.875845
251	0x40068488	2.101839
252	0x3f4f6011	0.8100596
253	0xbf1701b3	-0.5898697
254	0xc0bf9b09	-5.987675
255	0x3fe9dc63	1.8270382
