ae_codes_onehot/best_model_fcn2_10_10_1_adamw_0.0001_64_encoded.npy (npy, 101704 bytes, 1 tensors)

array f4 [25394, 1]
000000 df 0a 11 40 95 cf 1d 3f 3d f6 a9 3f 8f 69 10 40
       2.2662885 0.6164487 1.3278271 2.2564428
000010 c4 b2 06 40 72 0a 38 40 fe e2 38 40 84 68 1d 40
       2.104661 2.8756375 2.8888545 2.4595041
000020 c0 1a 4a 3d 14 03 5f bf 5e 19 57 c0 06 1b 01 40
       0.049341917 -0.8711407 -3.3609233 2.0172744
000030 dc 22 f5 3e 5a cc 1f 40 d2 c2 ed 3e 76 3d 32 40
       0.47878158 2.4968476 0.464377 2.7850013
000040 08 82 13 40 ba 13 39 40 10 73 16 40 10 91 c9 3e
       2.3048115 2.891829 2.3507729 0.39368486
000050 a2 b4 11 40 f9 34 8b bf cb 71 f6 3e 8f 24 0f 3f
       2.27665 -1.0875541 0.48133692 0.5591516
000060 d2 85 d6 3e 52 58 f5 3e 98 16 85 bd c0 70 22 40
       0.41898972 0.47918946 -0.0649845 2.5381317
000070 ca b7 7d c0 ba cd 29 3f 75 4d a1 3f f3 09 95 bf
       -3.9643426 0.6632954 1.2601763 -1.1643661
000080 e2 a1 39 40 42 fa 39 40 10 aa 31 be 1b ed cd 3f
       2.9005055 2.9058995 -0.1735003 1.6087984
000090 07 e3 a7 3f c3 ce 8d bf 14 4d d7 3e d8 b2 29 40
       1.3116158 -1.1078724 0.42050993 2.6515408
0000a0 72 15 2e 40 38 6e d7 3e 7e d1 15 40 f0 e8 da 3e
       2.720059 0.42076278 2.3409114 0.42755842
0000b0 e0 07 57 3d 62 b8 25 40 1a 05 3a 40 5b 9b d7 bf
       0.052497745 2.5893788 2.9065614 -1.6844286
0000c0 cc eb 39 40 ed 26 d7 3f a8 e6 06 c0 60 e9 54 3d
       2.905017 1.6808754 -2.1078281 0.051980376
0000d0 72 0e 13 40 30 65 ca 3e 93 22 db 3f c8 3f 12 40
       2.2977567 0.39530325 1.7119926 2.285143
0000e0 c7 66 fb 3f 49 c8 0f 40 36 3f 0e bf e8 6c f7 3e
       1.964074 2.2465994 -0.555652 0.48325276
0000f0 88 ce 14 be d8 b2 29 40 a1 43 fa bf 2f df 93 3f
       -0.1453191 2.6515408 -1.9551889 1.1552485
000100 2f df 93 3f 06 71 07 40 98 d6 2e 40 4c 2f 32 40
       1.1552485 2.1162734 2.7318478 2.7841368
000110 60 e1 57 3d cc eb 39 40 c8 c9 33 be aa 20 f9 3f
       0.05270517 2.905017 -0.17557442 1.9463093
000120 d0 bd db 3f 14 21 25 40 14 21 25 40 14 21 25 40
       1.7167301 2.580144 2.580144 2.580144
000130 ed 7a 83 3f 5b 9b d7 bf e0 c8 57 3d c3 a4 cc 3f
       1.0271889 -1.6844286 0.052681804 1.5987781
000140 a9 0b cd 3f 2a d6 17 40 70 f1 57 3d ba da 13 c0
       1.6019183 2.3724465 0.052720487 -2.310225
000150 14 4d d7 3e 18 eb 0f 40 08 e5 e4 3e e6 82 30 40
       0.42050993 2.248724 0.44705987 2.7579894
000160 84 69 81 3f cc eb 39 40 1d 00 0b 40 b9 0b 4e 3f
       1.0110326 2.905017 2.171882 0.8048664
000170 e2 35 74 3f 52 bb d6 3e 6e b2 84 3f 36 81 2e 40
       0.9539472 0.4193979 1.0366952 2.7266364
000180 8e 70 87 3f 14 21 25 40 a4 2b cd 3e 10 35 72 be
       1.0581224 2.580144 0.40072358 -0.23653054
000190 b3 ff b1 3f 20 95 16 40 53 91 c7 bf b9 3b 84 3f
       1.3906158 2.3528519 -1.5591224 1.0330726
0001a0 a4 ff d4 3e a5 6b de 3f 76 23 0e 40 68 81 06 3f
       0.41601288 1.73766 2.2209144 0.5254121
0001b0 e2 a1 f2 3e 28 20 0e c0 6e 02 04 40 09 37 16 bf
       0.47389132 -2.2207127 2.0626483 -0.58677727
0001c0 42 fa 39 40 21 77 e5 3e 6c f3 04 40 03 23 82 3f
       2.9058995 0.4481745 2.0773573 1.0166935
0001d0 3e ca 33 c0 1a 05 3a 40 0e 16 fd 3e 14 4d d7 3e
       -2.809219 2.9065614 0.4943089 0.42050993
0001e0 ac 2f 9b bf 7b 4f d9 bf 42 fa 39 40 c3 ce 8d bf
       -1.2123923 -1.697738 2.9058995 -1.1078724
0001f0 14 21 25 40 14 21 25 40 ac 2f 9b bf cc eb 39 40
       2.580144 2.580144 -1.2123923 2.905017
000200 c3 a4 cc 3f 92 05 39 40 d2 5d d5 3e 46 46 a5 bf
       1.5987781 2.890965 0.41673142 -1.2912071
000210 ab 46 cc 3f 5c 4f 06 c0 88 84 07 40 20 0d 5b 3d
       1.5959066 -2.0985937 2.117464 0.053479314
000220 e0 f1 ad 3d 98 a9 36 be fc 65 00 3f 0c d1 16 40
       0.084933996 -0.17838132 0.50155616 2.3565092
000230 78 61 ef 3f bc f3 d5 bf 5b 41 b6 bf 1a 05 3a 40
       1.870162 -1.6715007 -1.4238695 2.9065614
000240 22 44 3b 40 c0 70 22 40 e2 a1 39 40 98 85 27 40
       2.9260335 2.5381317 2.9005055 2.617529
000250 a8 2d 13 40 cc eb 39 40 5c 74 55 3f cc eb 39 40
       2.2996616 2.905017 0.83380675 2.905017
000260 4c 2f 32 40 50 f8 db bf fa ec fd 3f fc 53 d7 3e
       2.7841368 -1.7185154 1.9837945 0.42056262
000270 49 b6 8a 3f b9 51 e6 3f 24 b9 ca 3e 76 bc 21 40
       1.0836879 1.799369 0.39594376 2.5271277
000280 cf 12 04 40 12 9f d5 3e b8 5c 25 3e 6a 3f f8 3f
       2.063648 0.41722924 0.1614865 1.9394352
000290 18 e0 1d 40 c0 77 d7 3e 02 bd 28 40 f6 2e 20 40
       2.4668026 0.4208355 2.6365361 2.5028663
0002a0 08 a4 aa bf 48 7a 32 40 b2 19 7d bf a1 41 e4 3f
       -1.3331308 2.7887135 -0.9886733 1.7832528
0002b0 f7 83 e1 3f a5 c8 f9 3f 54 7d 10 40 24 fb f3 3f
       1.7618397 1.9514357 2.2576494 1.9061017
0002c0 0c e4 02 40 36 06 0e 40 28 4f d8 3e 4c 2f 32 40
       2.0451689 2.219129 0.4224789 2.7841368
0002d0 db 42 fe 3f 64 42 e4 3f 19 dc e3 3f 14 21 25 40
       1.9864153 1.7832761 1.7801543 2.580144
0002e0 4c 43 12 c0 ef 22 f8 bf e6 82 30 40 c0 e8 05 40
       -2.2853575 -1.9385661 2.7579894 2.092331
0002f0 8e aa 39 c0 16 6c 1f 40 fa 40 8f 3f 14 21 25 40
       -2.9010348 2.490972 1.1191704 2.580144
000300 7f 09 f0 3f 60 8e 52 3d a8 2d 13 40 e5 58 ac 3f
       1.8752898 0.05140531 2.2996616 1.3464628
000310 56 92 0b 40 35 08 fa bf 24 16 78 bf d6 b0 38 40
       2.1808066 -1.9533755 -0.96908784 2.8857932
000320 e2 ca c5 3f 73 9f 8b 3f 42 fa 39 40 11 81 d3 bf
       1.545254 1.0908035 2.9058995 -1.6523763
000330 8a 3b 0e 40 40 7c 12 40 a8 64 32 3f 42 93 d5 3e
       2.222384 2.2888336 0.6968484 0.4171391
000340 42 55 11 c0 02 a0 de 3e f0 bf 16 3f bc 5e 07 40
       -2.2708287 0.4348145 0.58886623 2.1151571
000350 10 aa 31 be e2 10 60 bf 00 f3 57 3d f9 34 8b bf
       -0.1735003 -0.8752576 0.052721977 -1.0875541
000360 00 bf 07 40 42 fa 39 40 05 13 08 40 00 fb 59 3d
       2.1210327 2.9058995 2.1261609 0.053217888
000370 ba 13 39 40 fb 61 da 3f 5f 87 25 3f 92 05 39 40
       2.891829 1.7061151 0.64659685 2.890965
000380 e2 a1 39 40 0c 1f 16 40 15 b2 07 40 94 5f 1e 3f
       2.9005055 2.345645 2.1202443 0.6186459
000390 79 fb 94 3f f0 8c f6 3f c4 c4 c0 3f 33 67 5d 3f
       1.1639243 1.9261761 1.5060048 0.86485595
0003a0 d8 b2 29 40 28 5f cc 3f 14 21 25 40 0c 1f 16 40
       2.6515408 1.5966539 2.580144 2.345645
0003b0 3e e1 b3 3e f4 ca 0a c0 60 d9 56 3d 76 2d cb 3e
       0.35132784 -2.1686373 0.0524534 0.3968312
0003c0 c7 52 f2 3e 47 8f 07 40 06 1b 01 40 be fc 2c 40
       0.4732878 2.11812 2.0172744 2.7029262
0003d0 66 37 b5 3f 30 83 ae 3f ed 21 ea bf 74 7b d6 3e
       1.4157531 1.3633785 -1.8291603 0.41891062
0003e0 b6 26 32 40 a4 de d6 3e 52 0f 13 c0 0e b0 df 3e
       2.7836127 0.41966736 -2.29781 0.43689007
0003f0 ca dc fe 3e ca f1 2a 40 c2 72 d7 3f 27 fa e8 bf
       0.49777824 2.6710076 1.6831896 -1.820134
